actor.pth (torch_old, 86005 bytes, 14 tensors)

fc1.weight f4 [128, 24]
000000 b4 2c a9 3d 4d 15 b2 3d 2c 3c 81 3b f1 e9 a6 bb
       0.082604796 0.08695469 0.0039439406 -0.005093806
000010 9c c3 88 bf da 33 af 3e 13 a5 5c 3c f1 c7 0a be
       -1.0684695 0.34219247 0.013467091 -0.13552834
000020 4e ac 9a 3d 60 a4 1f 3e e2 89 e2 bd 17 76 f1 bd
       0.07552396 0.15590048 -0.11061455 -0.11790102
000030 1e b3 92 bf 17 5d 94 3e 03 04 db bc 95 17 03 be
       -1.1460912 0.28977272 -0.026735311 -0.12801965
000040 97 c5 83 bd 61 32 67 3d a8 2d ca 3d 2e 68 b4 bd
       -0.06434172 0.05644453 0.098719895 -0.08808933
000050 f5 3d a6 bf 5f 4c 06 3f 5e 51 45 bd 11 c2 61 be
       -1.2987658 0.52460283 -0.0481733 -0.22046687
000060 e4 9d 1c 3e 57 57 09 bf 27 78 6a bd c4 2a cb 3e
       0.15294605 -0.53648895 -0.057243492 0.39681065
000070 e2 cb 5f be a6 ae 24 be 20 39 3b 3d 0f 6d ca 3e
       -0.21855119 -0.16082248 0.045708776 0.3953633
000080 e2 47 3a 3e c2 b2 e0 be 8b b4 84 3e 53 8e da 3d
       0.18191484 -0.4388638 0.25918993 0.106716774
000090 c4 c1 d2 be 05 02 82 be d2 ad 54 3e 69 d3 9d 3d
       -0.41163456 -0.25392166 0.20769432 0.07706339
0000a0 e8 25 03 3d 02 cb 0e bf 17 95 fc bd 59 36 56 be
       0.032018572 -0.55778515 -0.12333124 -0.2091917
0000b0 7d f9 26 bf 1f d9 95 bd 35 58 14 be 07 39 27 be
       -0.6522444 -0.07316803 -0.14486773 -0.16330348
0000c0 ba d5 3c 3e c2 31 3d 3f 6d f5 00 be 48 8a b5 3d
       0.18440905 0.7390405 -0.12593623 0.08864266
0000d0 70 19 c7 be da ce 11 bf 11 2b 95 bd 77 da ae 3c
       -0.38886595 -0.56956255 -0.07283605 0.021344407
0000e0 a3 fe fb 3d 39 09 22 3f cf 08 11 3d 27 66 9e bd
       0.123044275 0.6329532 0.03540879 -0.07734328
0000f0 74 96 7d be 9b 61 4c bf 53 d4 10 bd 07 8c be bc
       -0.24764425 -0.79836434 -0.03535874 -0.02326013
000100 cf e2 dd 3d ad 62 f7 3e 0b bf 80 bd 07 41 b0 be
       0.10834276 0.4831747 -0.062864386 -0.34424612
000110 c8 ae 14 be a2 2c 75 bf 25 9d b1 3d 7e 64 c3 be
       -0.14519799 -0.9577123 0.08672551 -0.38162607
000120 5d 25 fc bd 40 b5 14 bc ae 9a 7e bd 46 b7 f0 be
       -0.12311814 -0.0090764165 -0.062159233 -0.47014827
000130 cb f8 0c be 64 6c 28 be a0 69 46 be d7 59 13 bf
       -0.13766782 -0.16447598 -0.1937623 -0.5755896
000140 3a 74 d2 bd 15 36 b4 3c 8a fb 00 bc 8b 7c c2 3e
       -0.10276075 0.021998445 -0.007872472 0.37985644
000150 a2 5a 1b be 29 a2 5e be 5b 36 98 bd 40 c9 a1 3e
       -0.15171292 -0.21741547 -0.074322425 0.31598854
000160 72 6a 10 be c4 eb 22 3e 21 fa 58 3d 90 c0 82 3f
       -0.14103106 0.1591025 0.052972917 1.0215015
000170 39 e0 32 3d b3 30 bd 3d 55 34 e1 ba 17 3e 70 3f
       0.043670867 0.09237804 -0.0017181734 0.9384474
000180 42 f8 7f be 67 f5 71 bd 62 b0 a2 bd 54 e3 a4 bc
       -0.24997047 -0.059071925 -0.079437986 -0.02012793
000190 10 63 d0 be e5 a1 55 be 94 3d 87 bd 6c 7a b7 bc
       -0.4070058 -0.20862539 -0.06603542 -0.022397242
0001a0 51 f0 2d be dd 34 a7 bd 6b 1c 70 be f3 df 60 3d
       -0.16986205 -0.0816438 -0.2344834 0.054901075
0001b0 80 96 f8 be fc ef 4a be 42 92 45 be f0 b3 85 bd
       -0.48552322 -0.1981811 -0.19294074 -0.06528461
0001c0 90 96 39 be 3c 86 73 3d 77 cf 26 be 99 be ee 3e
       -0.18123841 0.059454188 -0.16290079 0.4662979
0001d0 b2 f7 71 be a7 2f 96 be 16 0b 94 be 9c 0c 07 3f
       -0.23629645 -0.2933323 -0.28914708 0.52753615
0001e0 08 fa d3 bc 23 03 b7 be f6 fa a5 3e d9 54 9d bd
       -0.02587606 -0.3574458 0.3241803 -0.07682199
0001f0 06 c3 88 3c d1 54 c6 3f 6e 9a 24 3e 4f 3b 7b bc
       0.016694557 1.5494634 0.16074535 -0.0153339645
000200 4c e1 25 3c a0 d9 d6 be 9e 04 22 3d 31 6e 0b be
       0.010124516 -0.4196291 0.039555185 -0.13616253
000210 0b aa 07 be 12 5f 46 3f d1 be 81 3b 58 95 e0 3c
       -0.1324846 0.77488816 0.0039595147 0.027414963
000220 67 0c e6 be ec de 1f bf 97 f9 cb 3d 05 2a 51 3c
       -0.44931337 -0.62449527 0.09959715 0.012766366
000230 95 cc 5a 3e ee 59 a7 3e 4c 45 85 3c 12 38 09 3e
       0.21367104 0.32685798 0.016268395 0.13400295
000240 c6 d7 34 3d 14 7e 6d 3f 31 78 48 be 8c 57 93 3d
       0.04415109 0.92770505 -0.195771 0.071944326
000250 51 b3 36 be b7 ae ea be 4f cf ba bd 9e ac bb 3b
       -0.17841841 -0.45836422 -0.09121572 0.0057273647
000260 19 49 a3 3e a3 24 46 3f de fb 89 3e e7 4a 36 be
       0.31891707 0.77399653 0.26949972 -0.1780201
000270 3f 07 c5 be 75 92 5b be dd 5e 49 3e 5a bb c8 bd
       -0.3848209 -0.21442588 0.19665094 -0.098013595
000280 6a 1c ca 3e 69 6f 40 3f bd d4 d6 bd 62 1d 23 bd
       0.39474803 0.7517 -0.10489795 -0.039822944
000290 b9 84 d7 be 41 06 24 be 87 1d 80 bd f6 f0 21 bd
       -0.42093447 -0.1601801 -0.06255632 -0.03953644
0002a0 65 b1 d8 3e 74 6b 46 be 05 27 55 3d c1 ba a6 bc
       0.4232284 -0.19376928 0.052039165 -0.020352723
0002b0 98 fa 6e bd 59 35 0b bf 36 50 38 3c 41 d1 66 bc
       -0.058344454 -0.5437828 0.0112495925 -0.014087976
0002c0 7e 20 d7 3e 77 7c 75 be 20 44 ea bd 88 06 d4 be
       0.42016977 -0.23973261 -0.11438775 -0.41411233
0002d0 4b f3 1b 3d 4a 94 27 bf 28 9b 27 be bd 0f a8 be
       0.03807382 -0.65460646 -0.16367781 -0.32824507
0002e0 51 c0 d7 3e 0c 0c bc be a0 4e 06 be 8b 5a ba be
       0.42138913 -0.3672794 -0.1311593 -0.36397204
0002f0 e3 9a 2d be 47 2c ba be 81 e1 08 3d 78 3f c5 be
       -0.16953616 -0.36361906 0.033418182 -0.38524985
000300 75 9f 5e 3b e2 d8 1e bf 4a 5d 10 3e a6 89 03 3e
       0.0033969556 -0.62049687 0.14098087 0.12845477
000310 25 66 b8 bd e3 4b 61 3d 00 98 8c 3d 92 a5 32 3e
       -0.090038575 0.05500401 0.06864929 0.17445973
000320 ee ce 00 3e 21 6b f8 be bc 8a aa 3e 3f 29 cd bd
       0.12578937 -0.48519233 0.3330897 -0.10017633
000330 a0 13 68 be b7 1d eb bd 59 61 bc 3e b4 d4 2c be
       -0.22663736 -0.11480277 0.3679302 -0.16878015
000340 7f 7d 58 3e 26 f1 1c bf 00 de 6d 3e 61 e9 e1 3e
       0.21141623 -0.61305463 0.23229218 0.44123366
000350 1c 93 85 be 5e 8b 72 bc fc 1c 41 3e 3d 0e d2 3e
       -0.26088798 -0.014803736 0.18858713 0.41026488
000360 d0 21 c0 3d 1f d3 02 3c d5 1b 43 bd c2 10 b9 be
       0.09381449 0.0079849055 -0.047633965 -0.36145598
000370 1d 92 d2 bd 14 32 6f be 05 2c 04 be bb e7 ec be
       -0.10281775 -0.23358947 -0.12907417 -0.46270546
000380 6a 54 5c 3e 5a 58 29 bd c5 90 26 be 60 b3 52 3e
       0.21516576 -0.041344024 -0.16266163 0.20576239
000390 a2 20 5b bb 0d a4 07 bf 42 14 0f bd d2 28 29 3e
       -0.0033436199 -0.52984697 -0.03493143 0.16519478
0003a0 89 90 a5 3d 04 7f 24 3d 34 51 5c be 5a b8 18 3f
       0.080842085 0.040160194 -0.21515352 0.596563
0003b0 dc 25 3d 3e c6 d0 6c bf d0 43 59 be bb 92 02 3f
       0.18471473 -0.92506063 -0.21217275 0.5100514
0003c0 be cf 2d 3e 63 6f 02 bf 78 1a 8b bd 0c f2 94 bd
       0.16973779 -0.5095121 -0.06792158 -0.07272729
0003d0 04 45 63 bd 50 8a 7d bf 26 6f f0 bd 6e 8d be bd
       -0.05548574 -0.99039173 -0.1173995 -0.09304319
0003e0 93 ef 78 3e cb 8e b3 be 69 91 80 bd 99 9e db 3e
       0.2431014 -0.3506988 -0.06277735 0.42894438
0003f0 4c dc c6 bc 2f e4 58 bf ea b9 99 3d 9f be 98 3e
       -0.024274968 -0.8472318 0.075061634 0.29832932

fc1.bias f4 [128]
000000 03 6a 93 3e 22 9b 10 be af 9b 9c be 6c fe 9d bd
       0.28791818 -0.14121678 -0.30587527 -0.07714543
000010 8c d1 a3 be ef ed 3a 3f aa 60 f5 be d2 fe 34 bf
       -0.3199581 0.7301931 -0.4792531 -0.70701325
000020 0b 5e b4 3e 45 bf 74 be ed ea 14 3c 39 12 a3 bc
       0.35228 -0.23901089 0.009089214 -0.01990615
000030 4d db 1a be c5 52 f5 be 40 b6 b0 be 1d 11 70 3e
       -0.15122719 -0.4791471 -0.34514046 0.23444028
000040 f9 68 75 be 6a e0 20 be 49 12 4d bc 47 c9 63 be
       -0.23965825 -0.15710607 -0.012516567 -0.2224475
000050 99 80 bc 3e 98 73 96 be 7a b1 18 bf 89 0c 98 be
       0.36816862 -0.29385066 -0.5964581 -0.29697064
000060 ed 83 01 3d 6e 42 25 3e f7 ae 33 bf 9b 53 20 3e
       0.031619955 0.16138622 -0.7018885 0.15656893
000070 fb 1b 00 bd db 62 82 be 33 77 54 be b2 db b3 3c
       -0.031276684 -0.25466046 -0.20748596 0.021955345
000080 a2 97 c5 be 41 02 92 3d 3d 68 e1 bd 15 e3 15 be
       -0.3859225 0.07129336 -0.1100621 -0.14637406
000090 68 4f c6 3e 08 b6 07 be b8 db e9 be ae df 43 bd
       0.38732457 -0.13253033 -0.45675445 -0.04782074
0000a0 49 23 0e be b4 04 01 be 6d e8 a5 be b8 28 f6 bd
       -0.13880648 -0.1259945 -0.3240389 -0.12019485
0000b0 26 9e 52 be bd 94 a8 bc 8c f8 38 be af 5a 79 be
       -0.20568141 -0.020578736 -0.18063563 -0.24351
0000c0 16 c9 be 3d 57 b3 88 be d5 28 04 bf 8c 2d 99 3e
       0.09315698 -0.26699325 -0.51624805 0.29917562
0000d0 51 3a 3c 3d 75 e3 af be 77 20 d8 bd 40 22 a3 3d
       0.045954052 -0.34353223 -0.10553067 0.07965517
0000e0 b6 94 05 bf ed 81 4f be e1 65 d1 be 02 ef c2 be
       -0.5218004 -0.20264407 -0.4089804 -0.38072973
0000f0 f6 f8 c6 be 10 9f 1f be f0 6d 99 3d b6 09 fa be
       -0.38861817 -0.15588021 0.07491672 -0.48835534
000100 dc ef 06 3e d2 43 66 bd 22 7f 72 3e 7f 28 ba be
       0.13177437 -0.056217022 0.2368131 -0.3635902
000110 3a 94 39 3c 54 b2 61 be 66 69 f3 3d 53 f1 43 be
       0.011326844 -0.22040683 0.118853375 -0.19135027
000120 09 10 07 3f 1a c1 b4 be 99 74 5d bf 4c 5b e7 3c
       0.5275884 -0.35303575 -0.8650604 0.028241776
000130 45 4e 3c be cc bf 75 be 65 8d 20 3e 77 4d ff 3d
       -0.18389232 -0.23998946 0.15678938 0.12465947
000140 64 8e 99 be 54 c5 cc bd 1e 7c 11 bf 59 e6 24 bd
       -0.29991448 -0.09998575 -0.5683001 -0.04025874
000150 fe 55 ff be d9 9c d4 be 7a 67 d9 be 17 00 0a bf
       -0.49870294 -0.41525915 -0.4246176 -0.5390639
000160 0a 6a e0 be ab 07 f6 be 88 13 fa be ff 62 fb 3e
       -0.438309 -0.48052725 -0.48843026 0.49098966
000170 8b 2e b9 bd 6c 3b ab be 41 3b 93 be 47 b4 26 3e
       -0.090420805 -0.33443773 -0.28756145 0.16279708
000180 0e 21 51 be f9 42 55 be 26 9e 0c bd e4 0c 93 bd
       -0.20422766 -0.2082633 -0.03433051 -0.07180193
000190 13 9b c0 3e 18 fd a8 be 70 d3 fb bd 50 e6 33 3e
       0.37618312 -0.33005595 -0.12296188 0.17568326
0001a0 0a 50 36 be 0a f4 71 be 21 2d e0 3d 00 84 7e 3f
       -0.1780397 -0.2362825 0.10946108 0.99420166
0001b0 5d 56 e2 be c2 16 16 3d b5 7a 87 be e2 8b 2a bf
       -0.44206515 0.036642797 -0.26460806 -0.66619694
0001c0 4a ca c5 3e 95 e9 4c be 5c 87 dd be 3c 63 4a be
       0.38630897 -0.2001098 -0.43267334 -0.19764417
0001d0 21 db 65 3d 10 6d 80 3d a9 d5 0b bd b1 a0 9f be
       0.05611718 0.06270802 -0.03413931 -0.31177285
0001e0 c0 b7 2a 3e 8a f3 6c 3e d9 a4 9a be d1 0d 2a 3e
       0.16671658 0.23139778 -0.30203894 0.16606833
0001f0 e2 98 2e be 45 04 18 bf 72 ae 67 be d5 2c 69 3e
       -0.17050508 -0.59381515 -0.2262514 0.22771008

bn1.weight f4 [128]
000000 d8 f2 e3 3e cc 85 c9 3d 88 12 90 3e 9e bd 06 3f
       0.44521213 0.09839973 0.28139138 0.5263308
000010 c5 88 27 3e 8c 21 26 3e b0 b1 cf 3e 48 84 7c 3e
       0.16360767 0.16223735 0.40565252 0.24659836
000020 98 77 b0 3e ce c6 bf 3e bd 56 4b be 6b e6 b9 3e
       0.34466243 0.37456363 -0.19857307 0.36308607
000030 df ff 75 3e a5 99 27 3f 78 3d 59 3d 1a 6a e6 3e
       0.24023388 0.6546882 0.053037137 0.45002824
000040 fd 79 a1 3e fb 6c 0c 3f 1e c6 6e 3e d1 ef 20 3f
       0.31538382 0.5485379 0.23317763 0.6286593
000050 99 5a 3a 3e ee df 31 3f 8a 27 90 3f 7c 47 e9 3e
       0.18198623 0.69482315 1.1262066 0.4556235
000060 f3 bb 05 3e 6b 39 bc 3e a3 36 ef 3e af 8a 38 3f
       0.13059978 0.36762556 0.46721372 0.72086614
000070 9a b0 17 3f 29 d6 7b 3e a2 32 ae 3d a8 de 11 3f
       0.5925385 0.24593414 0.08505751 0.5698037
000080 31 e2 97 3e 1b 00 ea 3e 6b 2e 5a 3f 3e c2 a4 3e
       0.29664758 0.45703205 0.8522708 0.32179445
000090 82 5d 01 3e 4f 98 0f 3f 6e ef 43 3f 4e c7 18 3f
       0.12633327 0.5609178 0.76537216 0.59679115
0000a0 1a 0c 88 3f a4 86 92 3f 8c 56 90 3f 26 7e 3b 3f
       1.0628693 1.1447339 1.1276412 0.7323936
0000b0 02 f6 c7 3e 78 4d 2d 3e 97 7a 41 3b 44 a1 fa 3e
       0.39054877 0.16924083 0.0029522532 0.4895116
0000c0 df ed 51 3d e4 b5 b0 3e 71 17 58 3f d9 7d f9 3e
       0.051252242 0.34513772 0.8441077 0.48728827
0000d0 af 55 4d 3f 02 a9 48 3e c8 09 26 3f 00 10 eb 3e
       0.8020887 0.19595721 0.64858675 0.45910645
0000e0 c8 12 d6 3e a8 9d 13 3f 8c 16 d9 3e 2e 28 36 3f
       0.41811204 0.5766244 0.42400014 0.7115506
0000f0 3e 8d 47 3f 33 c0 e3 3e 2d 72 1d 3e 75 81 ed 3e
       0.77949893 0.44482574 0.15375586 0.4638783
000100 c2 24 92 3e ef 73 51 3f 9f 24 48 3f e2 1a d3 3e
       0.2854367 0.81817526 0.7818088 0.41231447
000110 91 18 93 be 44 90 ec 3e 73 1b dc 3f ff 67 ee 3e
       -0.2872968 0.46203816 1.7195877 0.46563718
000120 ed e9 ac 3e ab 15 58 3e ea ae 79 3e db 92 85 3f
       0.3377222 0.21102016 0.2438313 1.0435442
000130 c7 ee 58 3f 28 8c 05 3f 6c ee 34 3f d2 c1 55 3f
       0.84739345 0.52166986 0.706763 0.8349887
000140 41 16 e6 3d aa d7 d4 3e ea da 6e 3f 99 a1 48 3e
       0.11234713 0.4157079 0.93302786 0.19592895
000150 a1 c6 04 3c 3d f8 89 3d 29 ea 94 3e d4 29 a6 3e
       0.008103997 0.06736801 0.290849 0.32453787
000160 b6 3f 6e 3f 0d bb c8 3f 86 8a a6 3e ea 95 69 3f
       0.93065965 1.5682083 0.3252756 0.91244376
000170 08 dc 88 3e e0 ef 39 3f d5 1a e1 3e 1c 70 03 3f
       0.2673037 0.72631645 0.43965784 0.5134294
000180 f2 5c 90 3e bb 81 af 3e 39 0d 2a 3e e7 0e 07 3f
       0.28195912 0.34278664 0.16606607 0.52757114
000190 36 b7 e1 3d 66 4b ca 3e c3 04 1b 3f 62 fc ef 3e
       0.11021273 0.3951065 0.6055414 0.4687224
0001a0 f2 91 03 3f 83 fe ec 3e 59 ae 4d 3f c4 1f 11 3f
       0.5139457 0.46287927 0.8034416 0.56689095
0001b0 f7 ed 6c be 81 ee 67 3f 24 db a5 3e a1 9a 97 3e
       -0.23137651 0.90598303 0.32393754 0.2961016
0001c0 58 24 08 be 76 7c 07 3f 23 17 8b 3e 55 de 1b 3f
       -0.13295114 0.5292429 0.2716609 0.60886127
0001d0 d0 3e d9 3e 09 b0 94 3f 29 d5 fb 3e b3 bc d4 3e
       0.42430735 1.1616222 0.49186066 0.41550216
0001e0 29 c1 af 3e 80 e0 dc 3e 56 63 1b 3e 10 5c 7c 3f
       0.34327057 0.4314003 0.15174612 0.98577976
0001f0 22 59 33 3f c5 72 92 3f d6 76 c9 3e c0 18 92 3e
       0.7005788 1.1441275 0.39348477 0.28534508

bn1.bias f4 [128]
000000 f4 b4 28 3e b5 4d 06 3d 8b 40 ef bd 85 6d 59 3e
       0.16475278 0.03278895 -0.116822325 0.21233185
000010 87 de b0 bc c4 11 b5 bc 31 6d c1 3d 82 45 ec bc
       -0.021590484 -0.022103198 0.09444655 -0.028841738
000020 52 ec d6 bc e8 81 07 3e 41 dd 39 3d 0d 7f b4 3e
       -0.026235733 0.13233149 0.04537702 0.35253182
000030 b5 84 74 3d cd 70 5b be fc a7 73 be 59 2d 8b 3e
       0.05969687 -0.21429749 -0.2379455 0.27183035
000040 7e 8b 72 3d 9b 8c cf 3e 0e df 31 3f 4f 10 46 be
       0.05921506 0.4053696 0.6948098 -0.19342159
000050 4d cf 9c 3e ca 2b a9 3e 7e 12 17 3e 2e 03 de 3d
       0.30626908 0.3304122 0.14753148 0.1084045
000060 ad 42 e7 3e 15 ca fa bb fd 1b a2 3e cb 27 81 3e
       0.45168057 -0.0076534846 0.31661978 0.25225672
000070 44 66 cf 3e df 85 d9 be 43 c8 63 3d b8 31 2f 3d
       0.4050771 -0.42484948 0.055610906 0.042772025
000080 0e ec 0a be ef 32 56 3e 7c 8f af bd 7a 7e 32 3e
       -0.1356661 0.20917867 -0.08572289 0.1743106
000090 53 53 25 be 5d d6 a5 3e 8b 25 4c 3e f2 36 81 bc
       -0.16145067 0.3239011 0.19936197 -0.01577327
0000a0 ef 07 16 3f 16 80 1c 3f d0 8c b5 bd 88 ca 86 3e
       0.58605856 0.61132944 -0.088647485 0.26326394
0000b0 3b 1b ab 3e 70 5d 68 bd 5e 19 a2 bc 17 e2 ae 3e
       0.33419213 -0.056729734 -0.019787487 0.34156868
0000c0 5d 51 70 3b a4 64 eb 3d 2f cf 0f 3f 2d b0 af bb
       0.003666959 0.11493805 0.5617551 -0.005361578
0000d0 d2 ec 12 3e 2b 22 1d bd f5 32 db 3e 17 9c 04 3f
       0.14348152 -0.038362663 0.42812315 0.51800674
0000e0 b8 d6 d7 bd 4a db 4d 3d f2 88 62 3e ff 4c 15 3f
       -0.10539001 0.05025796 0.22122553 0.5832061
0000f0 82 26 09 3f e2 50 eb 3e 7e 52 d4 bd c2 c9 de 3d
       0.53574383 0.45960146 -0.10367297 0.10878326
000100 e7 87 1a bd ba 86 5c 3d 81 60 a2 3e f5 1e 12 be
       -0.037727263 0.053839423 0.31714252 -0.14269622
000110 cd 76 bc be 76 17 2f 3e 66 2d fd 3e df 34 9f 3e
       -0.36809388 0.17098793 0.494487 0.31095025
000120 3f 4f b7 bd 7d 9b 41 bc cc c4 61 3e 28 9b 11 3f
       -0.08950662 -0.011816856 0.22047728 0.56877375
000130 5f a6 dd 3e 25 c3 84 bc 28 bd 41 3e 64 ff 8c 3d
       0.43290994 -0.016206333 0.18919814 0.068846494
000140 1f c7 40 3e 7e 1a f4 be dd af 9d bd a0 62 89 be
       0.18825959 -0.47676462 -0.07699559 -0.26833057
000150 a8 a9 27 3f 82 e3 83 3d 2a 29 69 3b 5f 57 6f 3e
       0.6549325 0.06439878 0.0035577514 0.23373173
000160 3d a1 fc 3e b2 67 03 3f c8 e0 c2 3d bc 84 d1 3d
       0.49341765 0.513301 0.0951553 0.10230395
000170 b1 ce e5 3e 8a 8e ae 3c a3 b9 80 3d 26 f6 9b 3e
       0.44884256 0.021308202 0.062854074 0.30461234
000180 7d 99 ca 3c f8 e1 2c 3d 82 3e 8a be 17 c0 15 3e
       0.024731392 0.042207688 -0.27000815 0.14624058
000190 8b 26 86 bd 01 d4 cc bd 87 25 33 3e a5 8d 9c 3e
       -0.0655032 -0.10001374 0.17494784 0.30576816
0001a0 f0 15 ce 3e 56 af a2 3e fc 95 06 be ce e7 59 be
       0.40251112 0.31774396 -0.13143152 -0.21279833
0001b0 8b 8e 1c 3f 9e 17 49 3e 03 c4 57 bd 87 2d 99 3e
       0.61155003 0.19637915 -0.052677166 0.29917547
0001c0 e0 51 0b bf f0 2c 81 3d 3b bb 7e bc 21 20 62 3d
       -0.54421806 0.06307399 -0.015547569 0.05520642
0001d0 46 46 bc bc 3c f3 37 3f 13 6a 46 3e 8d 22 43 3e
       -0.022982728 0.7185552 0.19376402 0.19056149
0001e0 25 71 2e 3e 7b 2f bc bd 4e 96 f3 3d d1 2a d8 3e
       0.17035349 -0.09188744 0.11893903 0.42220166
0001f0 8a 84 b6 3e dd 0b e8 3d c4 8c 9f 3d e9 fe f4 be
       0.35647994 0.11330388 0.07790521 -0.4785073

bn1.running_mean f4 [128]
000000 8f 9b 1f 41 38 6f 3a 40 b2 58 58 3e 2f f1 93 40
       9.975478 2.9130383 0.21127585 4.6231914
000010 cf 0f c8 40 e1 21 91 41 ab d2 3e 3f 5a e2 63 3d
       6.2519298 18.141542 0.74540204 0.055635788
000020 b3 4b 1a 41 3f c4 85 3f ed 0d 1e 3f 71 97 c1 40
       9.643481 1.0450515 0.6174 6.0497365
000030 50 39 b9 3d 22 dd 1c 40 c4 15 57 3c e4 e3 9b 40
       0.090441346 2.4509969 0.013127748 4.8715687
000040 32 1d 38 40 27 03 98 3f 16 0e 15 40 7e f1 8a 41
       2.876782 1.1875962 2.3289847 17.367916
000050 c3 bb c4 40 9e 67 05 40 40 aa 20 41 70 3d 26 40
       6.14792 2.0844493 10.041565 2.5974998
000060 37 5e ce 40 2b c1 a7 40 2d 99 b9 3f fe 07 93 3e
       6.449001 5.24233 1.449987 0.28717035
000070 d0 36 fb 3f 72 63 43 41 aa fb a4 3f c4 16 c6 40
       1.9626102 12.211779 1.2889302 6.190279
000080 5d 1a f5 3e cc ea 1a 3f 23 f6 b2 41 ae 60 a7 3f
       0.47871676 0.6051452 22.370184 1.3076379
000090 a2 44 80 40 16 67 5f 40 d5 10 3a 3e 4b 66 7b 3f
       4.008378 3.4906669 0.18170483 0.9820296
0000a0 66 00 a3 40 a9 08 d8 40 b3 83 a6 3e 42 fa e3 3c
       5.0937986 6.751057 0.32522354 0.027829293
0000b0 94 94 9b 40 6d 02 23 40 f0 d3 00 40 ec 4f 56 3f
       4.861887 2.547023 2.0129356 0.837157
0000c0 e9 cc 8a 40 d5 cd ea 3f ff 90 8c 40 98 c5 94 40
       4.3375134 1.8344065 4.3926997 4.6491203
0000d0 3b e3 48 3f c7 a0 29 3f a8 90 99 3f f1 43 3e 40
       0.78471726 0.6626095 1.199727 2.9728968
0000e0 71 8b aa 3e ee 14 13 3e c6 98 9a 3e 73 ad 3e 40
       0.3330951 0.14363453 0.30194682 2.9793365
0000f0 29 54 69 3f 01 c5 f7 40 53 65 98 3e 6d 96 a0 3f
       0.91144043 7.7427983 0.29764804 1.2545906
000100 1e 40 7c 40 c0 d3 fd 3e 61 d0 00 41 3c a9 42 3e
       3.9414134 0.49575615 8.050874 0.1900987
000110 f3 06 73 40 27 68 58 40 bc e9 40 40 14 58 15 40
       3.7972991 3.381357 3.014266 2.3335009
000120 51 b5 49 41 e4 c1 b3 3d 5d 52 8c 3a d6 8e a1 40
       12.606767 0.08777216 0.0010705699 5.048686
000130 aa 28 f0 40 55 05 d4 3e e3 31 91 3f 95 9c ee 3e
       7.504964 0.41410318 1.1343349 0.46603838
000140 53 d3 21 3b 26 e9 ca 40 48 70 b1 40 58 a9 11 41
       0.002469261 6.3409605 5.544956 9.103844
000150 04 00 00 00 32 32 0f 41 bf 64 15 40 20 ea 58 3d
       6e-45 8.949755 2.334274 0.052957654
000160 93 d7 34 40 84 a5 ba 3f 4f 1d c5 3b 6d 24 8a 3e
       2.8256576 1.4581761 0.0060154567 0.26980916
000170 4d bb 22 3f e8 b2 1f 3d a0 88 58 3f ce 6f b3 40
       0.6356705 0.038988978 0.84583473 5.607398
000180 aa ce 2d 40 04 d6 83 3f 66 b0 32 3e dc c5 0e 3f
       2.7157388 1.0299687 0.17450103 0.5577066
000190 a5 39 f9 40 9c 99 9c 40 3c ed 88 3f 03 78 c6 3f
       7.7882867 4.893751 1.0697398 1.5505375
0001a0 d9 21 8d 40 40 2e 76 40 64 e0 52 40 eb 9b 28 41
       4.410382 3.8465729 3.2949457 10.538066
0001b0 9e 29 13 41 d3 2e 2e 40 75 ce 53 40 5d 98 05 3c
       9.19766 2.721608 3.3094761 0.008154002
0001c0 af 66 a4 40 80 86 e8 3e 2c 16 68 3e e2 57 cf 3e
       5.1375346 0.45415115 0.22664708 0.40496737
0001d0 23 3c 8f 3f 9d 06 98 40 bb 6c 4b 3e 1a d7 0a 40
       1.1190227 4.7508073 0.19865696 2.1693788
0001e0 e7 3b c3 3f 46 48 80 40 ff 38 1d 40 9d aa 2c 40
       1.5252656 4.0088224 2.4566038 2.6979134
0001f0 94 87 c1 3c 17 eb c9 40 d3 7d 11 3f 8d 18 9b 3f
       0.023624219 6.3099475 0.5683262 1.2116867

bn1.running_var f4 [128]
000000 5a ee fe 42 b1 a9 f9 41 6f a9 8c 3f 2d de 53 42
       127.46553 31.207857 1.0989207 52.96697
000010 eb fd b3 42 f2 41 aa 42 7e 0f fb 40 c5 ad dd 3e
       89.99593 85.1288 7.845641 0.43296638
000020 bf f8 5f 43 22 81 2e 41 65 b0 7b 40 b1 77 89 42
       223.97166 10.906527 3.9326413 68.73377
000030 5c eb 2c 3f a2 31 18 41 7e f9 c2 3d 18 26 3b 42
       0.6754663 9.512117 0.09520243 46.7872
000040 48 e1 0c 42 f3 46 e8 40 a1 0a b5 41 34 6a 6c 42
       35.22 7.258661 22.63019 59.103714
000050 a5 29 9d 42 a4 c3 da 40 20 e8 85 41 3c a1 bc 41
       78.58134 6.836382 16.738342 23.578728
000060 1c a9 3f 42 3c 82 88 42 cd ee 94 40 9b b7 e0 3f
       47.915146 68.254364 4.6541505 1.7556032
000070 ea 0a 6f 41 cf da c8 42 46 dc 67 41 8d 0e 84 42
       14.940165 100.42736 14.491278 66.02842
000080 35 05 87 40 4f da 82 40 ea 96 34 42 02 b2 6b 41
       4.2193856 4.089149 45.147377 14.730959
000090 ce e4 2a 42 86 c6 f4 41 6a c0 ad 3f 9c 7c 1c 41
       42.723442 30.596935 1.3574345 9.780422
0000a0 04 25 51 42 13 14 26 42 0c ab 18 40 31 9a 3d 3e
       52.286148 41.519604 2.3854399 0.1851585
0000b0 88 6c 94 41 ad 4c 95 41 df 8e ad 41 69 5e a2 40
       18.552994 18.66244 21.694761 5.0740247
0000c0 5a ad 86 42 5d e8 96 41 09 fd 85 41 7f 12 8b 41
       67.33858 18.863459 16.748552 17.384031
0000d0 36 3a 93 40 b6 69 a7 40 6b ec 49 41 86 74 3a 42
       4.600856 5.231654 12.620219 46.613792
0000e0 b1 8f 11 40 31 cb 31 3f b9 d0 19 40 51 ce c0 41
       2.2743952 0.6945067 2.4033644 24.10074
0000f0 01 d2 6c 40 d2 93 54 42 9a 34 ec 3f a7 4b 22 41
       3.7003176 53.144356 1.8453553 10.14347
000100 d1 cd 56 42 56 75 26 40 28 1c 41 42 b2 08 a5 3f
       53.700993 2.6009116 48.277496 1.2893279
000110 ca 4e 3e 42 68 19 23 42 c2 e9 61 40 3c 9c b2 41
       47.576942 40.77481 3.5298924 22.326286
000120 80 d3 b1 41 77 92 00 3f ba d6 eb 3a 43 f3 1d 42
       22.228271 0.5022349 0.0017993071 39.48756
000130 5c 71 a6 42 72 b6 81 40 d9 8e c5 40 4b b8 48 40
       83.221405 4.053521 6.1736875 3.1362484
000140 8c 79 2b 3c 6c 42 6b 42 7c a3 d9 41 51 fa cb 42
       0.010465991 58.814865 27.204826 101.9889
000150 04 00 00 00 de bb 4c 43 19 31 a0 41 44 d4 b5 3e
       6e-45 204.73386 20.023973 0.35513508
000160 72 78 9d 41 e8 1c 09 41 07 e2 9d 3c c9 5a 9e 3f
       19.683811 8.569557 0.019272817 1.2371455
000170 9f c1 c8 40 e4 db 85 3e 75 69 ab 40 09 2a 88 42
       6.2736354 0.26144326 5.356623 68.0821
000180 d2 55 df 41 41 18 da 40 b1 21 3f 3f 2a c1 8c 40
       27.916904 6.8154607 0.74660784 4.3985796
000190 f1 c0 a6 42 47 63 9b 41 d8 e4 eb 40 d6 be 5d 41
       83.37684 19.423475 7.371685 13.859091
0001a0 f8 ec d3 41 c7 2f 52 42 8f 1a 16 42 fa 0e 25 41
       26.490707 52.546658 37.525936 10.316156
0001b0 06 8b 98 42 8d 4f 49 41 56 8d ee 41 10 cc 3d 3d
       76.27153 12.581922 29.819012 0.046337187
0001c0 62 bb ac 42 d2 ad 53 40 9f 73 10 40 57 ba 56 40
       86.36598 3.3074841 2.257057 3.3551233
0001d0 02 94 24 41 d9 49 34 42 60 73 b3 3f 2d 77 a7 41
       10.286135 45.072117 1.4019585 20.933191
0001e0 9d 92 36 41 65 54 cf 41 5e a4 ef 41 39 79 55 41
       11.410794 25.916208 29.955257 13.342095
0001f0 36 11 e2 3d d6 f1 7c 42 02 7b 79 40 f4 e5 2b 41
       0.11038439 63.236168 3.8981328 10.743641

fc2.weight f4 [128, 128]
000000 1e 13 ec bd d1 c3 79 3e 8a 93 b7 3d c0 45 a5 3e
       -0.11527084 0.24391104 0.08963688 0.32279778
000010 f5 41 df 3e de 74 2a be f5 3a c6 be 7c fa 66 be
       0.4360501 -0.16646144 -0.38716856 -0.2255649
000020 f9 cc 73 3e 43 b8 e1 3d b9 06 52 3e 42 84 4b 3d
       0.2380866 0.11021473 0.20510377 0.049686678
000030 b2 e8 2d 3e f2 4a cb be 22 0f 86 be c8 47 94 be
       0.16983297 -0.39705616 -0.2618342 -0.28961015
000040 04 ff 60 be d4 60 86 3e 00 f0 d2 3e 37 65 10 3f
       -0.2197228 0.2624575 0.4119873 0.5640444
000050 c3 10 0e 3f cb 34 84 be e3 5c 34 be cb 53 09 3d
       0.55494326 -0.25821528 -0.17613558 0.033527177
000060 90 04 7c 3e 59 04 c8 3e 92 3b ff 3e df 4c 09 3e
       0.24611115 0.39065817 0.49850136 0.1340823
000070 b9 9b 8a 3d 84 ac 9f bd c6 6d dc 3d 69 85 61 be
       0.06767983 -0.077965766 0.10763125 -0.22023548
000080 cf a9 ad be cf 79 4c be 80 29 07 3e ad 10 f4 bd
       -0.33918616 -0.19968341 0.13199425 -0.11917243
000090 81 0c 23 bf fa 67 6e be 8e 5b e4 be a3 20 74 3c
       -0.63690954 -0.23281851 -0.446011 0.014900359
0000a0 34 71 5e 3e c9 21 e1 3d 18 b4 66 bf 4f e1 7b bc
       0.21722871 0.10992772 -0.9011855 -0.015373542
0000b0 99 44 0b be 40 b9 57 be 44 ab 40 be 13 d6 6a be
       -0.13600387 -0.21066761 -0.18815333 -0.22933225
0000c0 3c 16 f3 bd 21 98 b9 3c 70 09 53 3e 0d 4a 0f bf
       -0.11869475 0.022655549 0.20609069 -0.5597237
0000d0 cf 7e 01 bf c2 fe 08 be 82 3a 0d be a7 35 99 3e
       -0.5058412 -0.13378432 -0.1379185 0.29923746
0000e0 93 56 6d 3d 50 eb 11 3e 65 cc d3 be 63 b0 81 3d
       0.05794389 0.14249921 -0.41366878 0.06332471
0000f0 3b b7 21 3f fa a4 84 3c c5 24 34 be 70 cc 32 3d
       0.6317021 0.016191948 -0.17592151 0.043651998
000100 14 1f fe be 6b 36 09 bf 37 e6 7d bc a0 9f 59 be
       -0.49633086 -0.5359866 -0.015496782 -0.21252298
000110 d4 c8 f1 be 00 5b da 3d 1c 30 6c 3e 68 7f 41 3f
       -0.47223532 0.10661888 0.23065227 0.7558503
000120 6e 26 15 be 3f 36 51 3e 4f 92 97 3e 79 0b 15 be
       -0.14565441 0.2043085 0.29603812 -0.14555158
000130 ac 20 cd bd 71 a6 3a bf dd 44 21 3e 7e a5 d7 3e
       -0.10015997 -0.7291022 0.15748926 0.42118448
000140 f6 fc 0d 3e ae 29 44 be af 1f 4c bc 24 cd 49 3e
       0.13866028 -0.19156525 -0.012458726 0.19707161
000150 36 70 b7 3e d4 d3 9a 3e b3 ef 81 be a4 78 7f bb
       0.35827798 0.30239737 -0.25378188 -0.003898182
000160 72 c3 09 be 1f d7 a6 3d f7 b7 17 be 0e f4 94 3d
       -0.13453463 0.081465 -0.14816271 0.07273112
000170 4a 12 00 3f d5 89 c8 bd 07 f3 7a be 74 6a ce bb
       0.50027907 -0.097919144 -0.2450677 -0.0062993113
000180 d9 54 ac bd f7 d3 bc 3e a5 88 cb bc b5 c8 9a 3c
       -0.08414621 0.36880466 -0.02484543 0.018894533
000190 a0 b7 98 be 9e c6 3b 3e e8 30 33 be dc b9 db 3e
       -0.29827595 0.18337485 -0.17499125 0.42915237
0001a0 5b e9 23 3f 44 ae 5e 3e 03 9c 4d 3e 5d 6a 12 3e
       0.6402795 0.21746165 0.20079045 0.14298387
0001b0 5a 7f de 3e c3 9d 2d bf 8c 0c 00 3e e4 8d ca 3d
       0.43456537 -0.6781885 0.12504786 0.09890345
0001c0 32 dd 01 be a3 c8 7b bb fc 65 62 bc d2 f2 6a be
       -0.12682036 -0.003841915 -0.01381826 -0.22944191
0001d0 4c de 9c be 9d 69 4e 3d 74 e5 f8 bd df 5f c6 be
       -0.3063835 0.05039369 -0.1215314 -0.3874502
0001e0 90 1b 8b bd e6 e1 11 be 9f 92 24 3e ae cf 77 3c
       -0.067923665 -0.1424633 0.16071557 0.015125198
0001f0 da 43 fe 3d 8d 77 e3 bc 0d 59 80 3e fa 21 c3 be
       0.124152854 -0.027766967 0.2506794 -0.3811186
000200 05 21 fa bd 07 c1 f6 bd 8d 41 96 3e fa 2e ea bd
       -0.12213329 -0.12048536 0.29346886 -0.11434741
000210 9b 21 4b 3d 64 32 07 3d dc e7 da 3d 0a 0f c6 bc
       0.049592596 0.03300704 0.10688755 -0.024177093
000220 64 9b 36 3d 01 eb b3 bc 2f a2 a7 bd 00 dc e8 bd
       0.044581786 -0.021962645 -0.08185231 -0.11370087
000230 32 cf 96 be 92 ac d0 bb 46 23 90 3e c5 62 81 be
       -0.29454952 -0.0063682282 0.28151911 -0.25270668
000240 36 dc b0 bd d0 82 25 bf d1 90 19 be da 32 13 3d
       -0.08635752 -0.6465273 -0.1499665 0.035937168
000250 60 4d 73 be e2 09 11 be 52 ff da 3c e8 b5 b6 be
       -0.23759985 -0.14163926 0.026733074 -0.35685658
000260 59 fe c1 be 85 e2 8e bc 91 b0 84 bd 97 ba 22 3b
       -0.37889364 -0.017441997 -0.0647899 0.0024830454
000270 59 77 bf be fe cb 7d 3e 08 b3 8d 3c f5 44 e1 3d
       -0.37395743 0.24784848 0.017297283 0.10999481
000280 11 82 52 be b0 46 80 be 2e 7f 02 bd 37 8f 23 3e
       -0.20557429 -0.2505393 -0.03185957 0.15972601
000290 14 e2 67 be 31 c1 4a bd 87 73 e8 be bc 2e 05 3c
       -0.22644836 -0.049500648 -0.4540064 0.008128818
0002a0 62 9f 1f bf 45 e7 bd bd e2 b2 31 bd 95 97 f8 bd
       -0.62352574 -0.09272627 -0.043383487 -0.12138287
0002b0 c1 4e c8 3c 07 05 8f 3d 65 18 b4 bd 1a 8e df be
       0.024451615 0.06983381 -0.087937154 -0.43663102
0002c0 20 6e a0 be 09 4f 8b be d1 5c a3 bd cf 00 c3 3d
       -0.3133402 -0.27208737 -0.07976688 0.095216386
0002d0 24 45 2f be 49 c8 3b bc b7 b0 fb bd fc 7d 91 be
       -0.17116219 -0.011461326 -0.12289565 -0.2841643
0002e0 03 1b 51 3e 40 6b f1 3b c3 96 ac be cf 4b 40 bf
       0.2042046 0.0073675215 -0.33708772 -0.75115675
0002f0 95 a0 04 bf e4 dd 4d bd a5 09 0c 3e 6a ac 1d bf
       -0.5180753 -0.05026044 0.13675554 -0.6159121
000300 b8 b0 eb 3d c9 f9 8b bd 91 00 af bd 6b b9 a9 3d
       0.11508316 -0.06834752 -0.0854503 0.08287319
000310 14 d6 65 3e 50 56 a7 bd 58 12 8e be 14 be 9f be
       0.22444946 -0.0817076 -0.2774837 -0.31199706
000320 6a a1 d1 bc 88 e2 ed bb 91 41 ba bd 46 f8 af bd
       -0.025589664 -0.0072596706 -0.09094537 -0.08592276
000330 6c 19 61 bd 9e 89 2d be e7 c4 0b be 2a 92 63 3b
       -0.054955885 -0.16947028 -0.13649331 0.0034724572
000340 64 df 20 be 65 af a9 3e 7a 74 83 3d f6 b8 91 3e
       -0.15710217 0.33141628 0.064187005 0.28461426
000350 74 32 ba be a4 eb 60 bd 21 5c c5 3c d8 00 81 be
       -0.36366618 -0.054912224 0.024091782 -0.25195956
000360 0a d2 71 be 06 d4 a2 be 45 e1 6e be 1d 2d 61 3e
       -0.2361528 -0.31802386 -0.23328121 0.21989866
000370 55 59 2d be 46 13 8f bd 8e 58 9c 3d 77 ff e6 bd
       -0.16928609 -0.06986098 0.07634078 -0.11279195
000380 33 e4 a9 3d 86 00 0a be ea 3a 5f 3e bc 96 b2 bb
       0.08295479 -0.13476762 0.21799818 -0.005450098
000390 c9 e8 f0 3d f8 bf 5f 3d 08 ca 1d be a7 2f df bd
       0.1176315 0.054626435 -0.154091 -0.10897761
0003a0 fd cf 81 be b6 a7 91 be fc 58 b2 bd 10 59 5a 3e
       -0.25353995 -0.28448266 -0.08708379 0.21323037
0003b0 b9 f0 bb be a2 ef 81 3d d9 94 5e 3e ce 85 62 be
       -0.36707094 0.063445345 0.21736468 -0.22121355
0003c0 f6 8f b0 3e b6 6a 23 3e d7 53 0a be 7e 2d 4d be
       0.34484833 0.15958676 -0.13508545 -0.20036885
0003d0 cf 69 40 bd f9 63 3f bd 3f ca 84 bd dc fe 95 be
       -0.046975907 -0.0467262 -0.06483888 -0.29296005
0003e0 fd a9 49 be 5f 3c 7d 3c 4a bb 3e be 99 43 14 bd
       -0.19693752 0.015456288 -0.18626133 -0.03619728
0003f0 35 d0 f1 bc f1 48 13 3d fb 51 2b be a9 be d9 3d
       -0.029518226 0.035958234 -0.16730492 0.10632069

fc2.bias f4 [128]
000000 b7 45 8d 3e c8 11 dd be 6c 1a 7c be d7 ed 68 be
       0.2759225 -0.4317763 -0.24619454 -0.22746979
000010 29 9a a2 be 35 3c 0d be 63 f1 78 be da 58 3d be
       -0.3175824 -0.13792498 -0.24310832 -0.18490925
000020 4f 50 93 3d 0d af 01 be 40 c7 01 bd 76 a7 0a bf
       0.07193052 -0.12664433 -0.03168416 -0.54161775
000030 21 e2 18 be b3 a4 80 be 3e 14 2e bd 01 96 00 bf
       -0.14930011 -0.25125656 -0.042499773 -0.5022889
000040 6d 54 b1 be 98 38 10 be 47 66 f3 bd 0e 90 75 3e
       -0.34634724 -0.14084089 -0.11884742 0.23980734
000050 0b 19 c0 be 66 47 43 be 8d ff 30 be eb e9 f3 3e
       -0.37519106 -0.19070205 -0.17284985 0.47639403
000060 31 96 a4 be 05 33 a2 be 48 d6 be 3d cb c4 41 be
       -0.32145837 -0.3167955 0.09318215 -0.18922727
000070 95 9a d4 be 1f eb 67 be 81 29 0c be ea 94 7a be
       -0.41524187 -0.22648285 -0.13687707 -0.24470869
000080 6c 2a 6a 3e c4 b9 8f be 56 f9 2f be 55 3d 76 be
       0.22867745 -0.28071415 -0.17184958 -0.24046834
000090 f0 f8 c6 be bf 8d 8e be 51 19 0a be 53 09 ad bd
       -0.388618 -0.2784252 -0.1348622 -0.08449044
0000a0 38 fe 24 be 43 1f da be a3 13 d2 be 41 1c 48 be
       -0.16112602 -0.42601976 -0.41030607 -0.19542028
0000b0 b8 68 09 be 85 23 f0 3b de 1c 80 be bd 8a c9 bd
       -0.13418853 0.007328453 -0.25022024 -0.09840915
0000c0 84 1a 06 be c9 09 39 3d 10 b2 93 be c4 b1 bb be
       -0.13096052 0.045175347 -0.28846788 -0.36659062
0000d0 ca 7e 91 be 10 3d b3 be 9d 2b 86 bd d1 da 3f be
       -0.28417045 -0.35007524 -0.06551287 -0.18735816
0000e0 f1 c0 d1 be 11 bb 41 be 03 3d 53 3d 86 be 6c be
       -0.40967515 -0.18919016 0.051571857 -0.23119554
0000f0 ba f2 04 be aa f5 2e be 3e f5 96 be 30 88 88 3d
       -0.12983218 -0.17085901 -0.2948398 0.06666601
000100 cc b4 b9 bd 5f eb d2 be 17 b4 2b 3e 8e 78 6b be
       -0.090676874 -0.411952 0.16767918 -0.22995207
000110 68 ac b1 be 4c 4b d4 3d 41 c4 af be b5 a6 b1 bd
       -0.34701848 0.10365924 -0.34329417 -0.08674375
000120 5f 4b 88 be 51 b1 87 bd b7 99 1a bf 10 59 70 be
       -0.26620004 -0.06625617 -0.603908 -0.23471475
000130 b6 2b 8e be ab 5a a1 be 3c 5a 88 be 86 3d 05 be
       -0.27767724 -0.31514487 -0.26631343 -0.1301175
000140 05 ec 95 be a9 d5 a1 be 94 44 33 be da 64 c2 bb
       -0.2928163 -0.31608322 -0.17506629 -0.0059324326
000150 09 95 8a be 00 57 d3 3d d9 51 dd bc c3 f1 36 3e
       -0.2706683 0.10319328 -0.027016567 0.17865662
000160 36 7f 81 3e c0 d6 85 be 31 13 38 be 34 3d 48 be
       0.25292367 -0.26140404 -0.17976071 -0.19554597
000170 d7 5d 9e be 2a 43 83 3e ce 8d b1 be 03 f5 88 be
       -0.3093097 0.2563718 -0.346785 -0.2674943
000180 43 f8 c0 be 26 4c 6e bc ab 89 94 be 12 7b f0 be
       -0.3768941 -0.014544522 -0.29011282 -0.46968895
000190 81 16 33 be c9 d6 c2 be ab 99 0d be 13 6c a5 be
       -0.17489053 -0.38054493 -0.13828151 -0.32309017
0001a0 0d ec 7f 3e 70 02 6e be e0 42 8d be 23 41 a2 be
       0.2499239 -0.23243117 -0.27590084 -0.3169032
0001b0 36 4d c5 be 67 7d 62 be 72 4b 25 be db 13 2e be
       -0.3853547 -0.2211815 -0.16142061 -0.16999762
0001c0 62 1c ce bd 1f 5b 05 3d ec 39 05 bd ef 24 05 bd
       -0.10064007 0.032557603 -0.03252594 -0.032505926
0001d0 01 9e 7c be 5e 81 0a be 68 ab a5 bd 31 ef 81 be
       -0.24669649 -0.13525912 -0.08089334 -0.253778
0001e0 d0 fe 85 3e f9 f1 99 be 86 67 40 be 07 e6 53 3e
       0.2617097 -0.30067423 -0.18789491 0.20693217
0001f0 79 a8 ad bd 0f 88 85 be c0 56 8b be 3e ba 99 be
       -0.08479399 -0.26080367 -0.27214622 -0.30024904

bn2.weight f4 [128]
000000 7a 94 25 3f fb 22 99 3f 1b bc b7 3e 1d 5f 10 3f
       0.6467968 1.19638 0.358857 0.5639513
000010 1c 06 8e 3f a6 ea ad 3f 39 75 34 3f ec c6 06 3f
       1.1095614 1.3587234 0.7049137 0.5264728
000020 b8 c0 74 3f 20 4a 84 3f 38 ad d4 3f 1f 34 6d 3f
       0.95606565 1.0335121 1.6615362 0.92657655
000030 3e 35 8b 3f 8d cc de 3f 7d 6c 66 3f ee 84 7e 3f
       1.0875623 1.7406174 0.9000929 0.99421585
000040 a5 26 9b 3f 26 e0 ab 3f a9 37 9d 3f 3f 4a 84 3f
       1.2121168 1.342778 1.2282611 1.0335158
000050 73 03 a2 3f b7 fd a2 3f 7e 31 06 3f c6 9c 57 3f
       1.2657303 1.2733678 0.5241927 0.8422359
000060 fa d3 92 3f b0 c7 68 3f 35 b8 43 3f 15 2f 9c 3f
       1.147094 0.909297 0.7645295 1.2201868
000070 ef 99 c1 3f eb 41 c4 3f 80 d0 5c 3f 0b 84 bc 3f
       1.5125102 1.5332617 0.86255646 1.4727796
000080 3e 6f 41 3f 14 d0 20 3f cd ad 9c 3f 41 4d 65 3f
       0.7556037 0.628175 1.224054 0.89571005
000090 a9 30 8f 3f 36 e3 3a 3f be 8f 98 3f 7f 32 31 3f
       1.1186725 0.73002946 1.1918867 0.69217676
0000a0 30 e0 43 3f 2b c7 93 3f 1c 3b 0d 3f 84 97 93 3f
       0.7651396 1.1545156 0.5516832 1.1530614
0000b0 7f 93 90 3f eb 4e 22 3f 85 47 49 3f b6 bd a5 3f
       1.1295012 0.6340167 0.78624755 1.294852
0000c0 e8 90 96 3f 15 5b 13 3f c6 cf 44 3f 31 14 66 3f
       1.1762972 0.57560855 0.7687954 0.8987456
0000d0 ee 63 ad 3f ce df 8c 3f 45 d9 96 3f 1d b6 40 3f
       1.3546121 1.10058 1.1785055 0.7527788
0000e0 f7 20 55 3f ea a1 9a 3f d2 e1 a5 3f e5 a4 52 3f
       0.83253425 1.2080662 1.295954 0.8228286
0000f0 9f b0 47 3f 9c 55 b6 3f 1f 0b b7 3f 11 ee 74 3f
       0.7800388 1.4244876 1.4300269 0.9567576
000100 ab 5e 8a 3f d1 16 b9 3f 99 cc a0 3f 70 41 c0 3f
       1.081014 1.4460088 1.2562438 1.501997
000110 f0 5e 79 3f 15 59 48 3f 50 1a 7a 3e 7b 46 b7 3f
       0.9741049 0.7826093 0.244241 1.4318384
000120 92 0f e5 3f e6 7c d3 3f f1 c6 80 3f 4e a7 55 3f
       1.7895377 1.6522491 1.0060712 0.8345841
000130 cb 3d 6d 3f 30 b5 ab 3f b4 a0 f1 3e d0 1f 53 3f
       0.92672414 1.3414669 0.4719292 0.8247042
000140 80 64 6f 3f d0 f9 af 3f a7 c7 9a 3f be 76 ab 3f
       0.93512726 1.3748112 1.2092179 1.3395612
000150 18 9c ff 3e 34 5e 9e 3f 7a 76 70 3f 15 4d ce 3f
       0.49923778 1.2372499 0.9393078 1.6117274
000160 68 7d 3f 3f a2 59 ae 3f 6e 14 c4 3f 5e bf be 3f
       0.7480073 1.3621104 1.5318735 1.4902151
000170 8f 07 31 3f 05 e6 a7 3f 0f 8b 8c 3f 61 a2 d7 3f
       0.6915216 1.3117071 1.0979937 1.6846429
000180 b9 1b 4f 3f c4 32 c4 3f af bc a6 3f 76 f5 a5 3f
       0.80901676 1.5327992 1.3026332 1.2965534
000190 90 1e 60 3f 6b b1 5f 3f fe 47 ad 3f d4 23 8e 3f
       0.87546635 0.87380093 1.3537595 1.1104684
0001a0 b4 90 c8 3e e0 d5 ea 3f 64 c4 69 3f a5 2a c8 3f
       0.391729 1.834652 0.91315293 1.5638014
0001b0 3d cb e9 3e 94 bd 0a 40 92 d3 86 3f b1 7b b8 3f
       0.4566287 2.167821 1.0533316 1.4412748
0001c0 0d c7 a9 3f ae ca 91 3f 87 91 e0 3f 2d e2 a0 3f
       1.326387 1.1389978 1.7544411 1.2569023
0001d0 7a 33 64 3f e4 71 5e 3f 67 29 1b 3f 64 78 60 3f
       0.89141047 0.86892533 0.6061005 0.876837
0001e0 06 ad 6a 3f 73 6d a0 3f de d4 c9 3f 11 7e 40 3f
       0.9167026 1.2533401 1.5768087 0.7519236
0001f0 d4 63 b9 3f 8d f4 1f 3f a5 9b 27 3f c8 b2 a2 3f
       1.448359 0.6248253 0.6547187 1.271081

bn2.bias f4 [128]
000000 d1 6a 0e be 67 f5 9b 3b 77 d5 0f b7 e1 f3 34 3a
       -0.13907935 0.004759479 -8.573165e-06 0.0006902796
000010 27 34 d1 3d 91 11 1e 3e 8c 1d 42 3e 75 b4 f9 39
       0.102150254 0.15436389 0.18956584 0.00047627432
000020 82 fc b0 3d 96 b6 04 3e 42 46 0f 3e 84 27 c1 3d
       0.08641912 0.12960276 0.13991645 0.09431365
000030 66 59 8e 3a 42 51 28 3e 39 18 d4 3d 2c 6b 6b ba
       0.0010860383 0.16437247 0.103561826 -0.00089805084
000040 a0 72 54 bd 78 5d d8 bd 55 ce d8 bd 77 8a 25 be
       -0.051867127 -0.10564703 -0.1058623 -0.16166101
000050 58 65 28 3b 63 05 3b b9 57 0b 29 3d 73 b5 04 3c
       0.0025695171 -0.00017835716 0.04127058 0.0080999015
000060 ac 64 e8 b9 a9 d3 e0 3c c3 ae de 3d 51 bb 23 bc
       -0.00044325495 0.027444677 0.10873177 -0.00999339
000070 0d a8 64 3a fd 21 d1 b8 34 ba 29 3d 67 50 9a bc
       0.0008722551 -9.9722274e-05 0.041437343 -0.018837167
000080 b8 07 7d bc 2d 26 d6 b9 49 67 78 3e 03 ba 03 bd
       -0.015443735 -0.00040845704 0.2425815 -0.032159816
000090 43 46 21 bd 10 37 8b 3c 22 7e 3a 3e 02 28 b5 3c
       -0.039373647 0.01699403 0.18212178 0.022113804
0000a0 d2 6d 48 3e 8e 15 4c 3c 73 87 36 3b 8d e1 d9 bc
       0.19573143 0.012456311 0.002785173 -0.026596809
0000b0 2f 0f 73 3d f2 2e 50 bd 66 52 76 b9 47 c7 36 bd
       0.059340652 -0.05082602 -0.00023491084 -0.04462364
0000c0 3c e6 fb bd 28 8e f6 3d cd 31 41 bd 47 d7 60 3d
       -0.12299773 0.12038833 -0.047166634 0.054892804
0000d0 86 e0 dd 3b 46 85 e4 3d 57 b8 09 3e b7 cb 33 3a
       0.00677115 0.111582324 0.13449226 0.0006858664
0000e0 e2 21 57 3e e0 1d 54 3e 3a 8a 94 bd 90 47 43 39
       0.21009019 0.20714521 -0.07252927 0.00018623308
0000f0 1c 56 b7 bd a9 c3 07 b9 32 a7 c0 3d 8a 98 2c 3c
       -0.08951971 -0.00012947492 0.0940689 0.010534415
000100 07 67 34 3e 85 6f 95 3a 1f 2f d1 bd 2f 09 3c 39
       0.17617427 0.0011401033 -0.10214066 0.00017932498
000110 f7 65 0d 3e eb 6f 62 3e a3 5b 87 bc ca f9 1c be
       0.13808428 0.22113006 -0.016523188 -0.15329662
000120 cb 6d 32 3d 4b 00 18 3e a9 61 50 3c a0 0b a9 3a
       0.043561738 0.14843862 0.0127185965 0.0012897141
000130 70 b1 3f 3d 5c 99 e8 3d 8a 0d 9f 39 82 df 71 39
       0.046800077 0.11357376 0.0003033693 0.00023066814
000140 bd b3 d6 3d 44 a2 47 3d 8b ee 09 b9 e9 84 4f 3e
       0.10483501 0.048738733 -0.00013154202 0.20265545
000150 26 8d 4e 39 0f 89 31 3e a5 2b 47 3d c7 83 5e 3e
       0.00019698273 0.1733744 0.048625607 0.21729957
000160 98 b6 06 3e 0d bd 07 39 fa e6 8b ba 87 d7 27 b9
       0.13155591 0.0001294503 -0.0010673695 -0.00016006651
000170 44 27 43 3d 62 ad 68 3d d6 67 f3 bb a5 87 f7 b8
       0.04764487 0.056805976 -0.0074281497 -0.000118031436
000180 a4 94 6a bc 3f 12 95 3d 3c 29 d0 3c c4 b0 2e 3e
       -0.014317665 0.07278871 0.025410287 0.17059618
000190 52 75 a7 bb e7 34 1c 3e 81 b9 c3 bd 05 6f dc 3d
       -0.005110421 0.15254556 -0.095568664 0.10763363
0001a0 90 24 f5 bc 95 44 37 bd 10 37 c7 3d 16 30 45 3e
       -0.02992466 -0.04474314 0.09727299 0.19256625
0001b0 fa aa 1d bc 57 eb 06 3d 93 98 b3 bd db 3b a2 3a
       -0.0096232835 0.03293928 -0.087693356 0.0012377457
0001c0 de cc 5b 3a ca 4f ff 3d 40 fb 18 3c e7 6c 94 3c
       0.00083847146 0.124663904 0.009337246 0.018118335
0001d0 cc 14 97 3b 0b ca 3b 3b c3 bd a1 3d 2b e0 85 bb
       0.0046106335 0.0028654363 0.07897522 -0.004085561
0001e0 42 a9 83 bc cd 7b af 3c 77 e1 97 3d d6 8c 24 be
       -0.01607192 0.021421338 0.07416051 -0.1606935
0001f0 90 8a 2e bc 45 96 1d 3d 12 63 1a 3a 11 1c af 3d
       -0.010653153 0.038473386 0.00058893964 0.08550275

bn2.running_mean f4 [128]
000000 5b 8d 7a 40 04 00 00 00 04 00 00 00 04 00 00 00
       3.9148777 6e-45 6e-45 6e-45
000010 a2 c8 88 3c 7a 3e dc 3f 8e 7f 37 3e 04 00 00 00
       0.016697232 1.7206566 0.17919752 6e-45
000020 9e c7 3a 3f 2f ee 65 3e 6a 4b f2 3d 04 00 00 00
       0.7296084 0.22454141 0.1183079 6e-45
000030 04 00 00 00 4b 27 ed 3d ad 67 8d 3f 04 00 00 00
       6e-45 0.1157976 1.1047264 6e-45
000040 04 00 00 00 4f 59 96 3e 38 48 0d 3f eb ad 37 40
       6e-45 0.29365012 0.5518832 2.86999
000050 68 47 33 00 04 00 00 00 b4 74 1f 3d 3f 22 8b 40
       4.709226e-39 6e-45 0.038929656 4.3479304
000060 04 00 00 00 42 d6 d8 3d 0c 41 c1 3f b4 69 63 3e
       6e-45 0.105877414 1.5097976 0.22208291
000070 04 00 00 00 04 00 00 00 04 00 00 00 b9 3b b3 3e
       6e-45 6e-45 6e-45 0.35006502
000080 67 a5 17 3f 04 00 00 00 8e 94 5b 3e 04 00 00 00
       0.5923676 6e-45 0.21443388 6e-45
000090 04 00 00 00 98 99 04 3e 94 9d c1 3f 21 20 b3 3e
       6e-45 0.12949216 1.5126214 0.3498545
0000a0 e9 b5 0f 3f 04 00 00 00 f7 f4 c2 07 7e 5b 00 00
       0.5613695 6e-45 2.9333853e-34 3.2821e-41
0000b0 95 04 2f 3f aa 5c 44 3d 04 00 00 00 7c da 9c 3e
       0.68366367 0.047939934 6e-45 0.3063544
0000c0 7e 4e af 3f 2f 0d 88 3f 04 00 00 00 04 00 00 00
       1.3695829 1.0629023 6e-45 6e-45
0000d0 04 00 00 00 3e fb 77 19 6e 07 3a 3f 04 00 00 00
       6e-45 1.2820339e-23 0.72667587 6e-45
0000e0 6f ab 07 3f 36 78 d0 3e de 50 87 3f 04 00 00 00
       0.5299596 0.40716714 1.0571554 6e-45
0000f0 cc 23 cc 3e 04 00 00 00 77 b3 5d 3e a5 29 2e 40
       0.3987106 6e-45 0.21650492 2.7212918
000100 b8 5f e6 3f 04 00 00 00 71 b3 95 3f 04 00 00 00
       1.7997961 6e-45 1.1695386 6e-45
000110 4d 80 c5 3d b5 13 c8 3f 04 00 00 00 14 5b 88 3f
       0.09643612 1.5631014 6e-45 1.0652795
000120 04 00 00 00 3e b5 74 3e 04 00 00 00 04 00 00 00
       6e-45 0.23897263 6e-45 6e-45
000130 04 00 00 00 fc 4d 3b 3e 04 00 00 00 04 00 00 00
       6e-45 0.18291467 6e-45 6e-45
000140 3f 02 a3 3f 0f 9a ff 3d 04 00 00 00 7f 7a 3c 3e
       1.273506 0.12480556 6e-45 0.18406104
000150 04 00 00 00 5f 65 83 3f a1 0f 31 3e 5f fb 4d 3f
       6e-45 1.0265311 0.17291118 0.80461687
000160 9e d5 83 40 04 00 00 00 04 00 00 00 04 00 00 00
       4.1198263 6e-45 6e-45 6e-45
000170 04 00 00 00 6a 11 1d 40 04 00 00 00 04 00 00 00
       6e-45 2.4541879 6e-45 6e-45
000180 ab 05 4b 3c 2b 94 45 3e 04 00 00 00 49 8e bd 3d
       0.012391488 0.19294803 6e-45 0.09255654
000190 04 00 00 00 9d 97 f8 3d 60 06 25 3e 1d a1 ca 3c
       6e-45 0.12138293 0.16115713 0.024735028
0001a0 ac 05 36 40 d0 08 ce 3d 8f 1e 7d 3f 8d 2a b8 3e
       2.8440962 0.100602746 0.98874754 0.35969964
0001b0 04 00 00 00 04 00 00 00 9d 49 07 3f 04 00 00 00
       6e-45 6e-45 0.528467 6e-45
0001c0 04 00 00 00 68 74 ac 3e c0 7a 06 3f 8e f6 10 3e
       6e-45 0.3368256 0.5253105 0.14156553
0001d0 04 00 00 00 04 00 00 00 53 ca a8 3d 04 00 00 00
       6e-45 6e-45 0.08241715 6e-45
0001e0 b1 31 17 40 6b f5 07 3e e6 98 89 3f 85 c5 05 40
       2.362408 0.13277213 1.0749786 2.0901806
0001f0 1f ce d7 3c 15 68 b3 3d 04 00 00 00 8a 95 20 3e
       0.026343403 0.087600864 6e-45 0.15682045

bn2.running_var f4 [128]
000000 3a 70 d7 40 04 00 00 00 04 00 00 00 04 00 00 00
       6.7324495 6e-45 6e-45 6e-45
000010 ad c5 83 3c fe 0d d7 40 95 6f 1b 3f 04 00 00 00
       0.01608547 6.720458 0.60717136 6e-45
000020 5d 41 c8 3f 10 f8 af 3e 94 0d 86 3e 04 00 00 00
       1.5644947 0.34368944 0.26182234 6e-45
000030 04 00 00 00 1d 57 14 3e 33 aa 41 40 04 00 00 00
       6e-45 0.14486356 3.0260131 6e-45
000040 04 00 00 00 f8 2f 98 3f 25 c5 2c 40 95 14 cd 40
       6e-45 1.1889639 2.6995327 6.4087625
000050 f7 98 10 00 04 00 00 00 65 fc d0 3d 20 b4 3b 41
       1.524241e-39 6e-45 0.102043904 11.731476
000060 04 00 00 00 9b 4e cd 3e f9 a2 7f 40 0e 00 22 3f
       6e-45 0.40099034 3.994322 0.63281333
000070 04 00 00 00 04 00 00 00 04 00 00 00 ae aa 8e 3f
       6e-45 6e-45 6e-45 1.1145837
000080 17 f0 5a 3f 04 00 00 00 34 87 b7 3e 04 00 00 00
       0.855226 6e-45 0.3584534 6e-45
000090 04 00 00 00 4c 4e 3f 3e da bb 8d 40 a6 be 23 3f
       6e-45 0.18682212 4.429181 0.6396278
0000a0 7f a6 90 3f 04 00 00 00 00 11 c2 07 3e 11 00 00
       1.130081 6e-45 2.9199867e-34 6.185e-42
0000b0 9a 85 82 40 06 1b 4c 3d 04 00 00 00 86 6d d7 3e
       4.078809 0.04983046 6e-45 0.42075747
0000c0 5c ad 85 40 98 3c b4 40 04 00 00 00 04 00 00 00
       4.177412 5.6323967 6e-45 6e-45
0000d0 04 00 00 00 1b 36 4c 18 b4 6f c8 3f 04 00 00 00
       6e-45 2.6393698e-24 1.5659089 6e-45
0000e0 38 38 f6 3f 22 63 cf 3f 24 5a 78 40 04 00 00 00
       1.9235907 1.6202128 3.8805017 6e-45
0000f0 fa 14 c3 3f 04 00 00 00 90 63 53 3f 0c 87 34 41
       1.5240777 6e-45 0.82573795 11.28297
000100 41 6e cf 40 04 00 00 00 ec f6 3d 40 04 00 00 00
       6.4822087 6e-45 2.968196 6e-45
000110 d8 b7 f4 3e a9 d1 8d 40 04 00 00 00 90 e5 75 40
       0.47796512 4.4318433 6e-45 3.8421364
000120 04 00 00 00 f2 71 a8 3e 04 00 00 00 04 00 00 00
       6e-45 0.32899433 6e-45 6e-45
000130 04 00 00 00 5d 1f db 3e 04 00 00 00 04 00 00 00
       6e-45 0.42797366 6e-45 6e-45
000140 4a db c0 40 a6 b3 c4 3e 04 00 00 00 8e 9e d1 3e
       6.0267687 0.3841831 6e-45 0.4094128
000150 04 00 00 00 4f d0 34 40 0f 7a 6a 3e a3 5f 98 3f
       6e-45 2.8252141 0.22898124 1.1904186
000160 b1 43 5d 41 04 00 00 00 04 00 00 00 04 00 00 00
       13.829026 6e-45 6e-45 6e-45
000170 04 00 00 00 3f 77 e2 40 04 00 00 00 04 00 00 00
       6e-45 7.0770564 6e-45 6e-45
000180 c2 9d 69 3c 87 5d ae 3e 04 00 00 00 89 b5 99 3e
       0.014258804 0.3405573 6e-45 0.30021313
000190 04 00 00 00 60 6b 13 3f 55 b9 1b 3f ce b5 4f 3d
       6e-45 0.57585716 0.6082967 0.05071049
0001a0 b9 80 e0 40 0f 8a 26 3e 0c c0 2c 40 58 f1 1b 40
       7.015713 0.16263603 2.6992216 2.4366055
0001b0 04 00 00 00 04 00 00 00 5b d9 e6 3f 04 00 00 00
       6e-45 6e-45 1.8035082 6e-45
0001c0 04 00 00 00 51 3e fb 3e bc 69 3c 3f e9 86 4b 3e
       6e-45 0.4907098 0.7359884 0.19875683
0001d0 04 00 00 00 04 00 00 00 11 02 17 3f 04 00 00 00
       6e-45 6e-45 0.5898753 6e-45
0001e0 4f 7c f0 40 ba 32 02 3f cd 6a 66 40 75 27 d7 40
       7.5151744 0.5085865 3.6002686 6.7235665
0001f0 43 c3 ed 3c 30 75 b9 3e 04 00 00 00 65 9d 9b 3e
       0.029023772 0.3622222 6e-45 0.3039352
