critic.pth (torch_old, 97289 bytes, 9 tensors)

fc1.weight f4 [128, 48]
00000000: 8196 b9be 25df 44bf f2b1 8cbc d606 2dbf
00000010: 805c 033e f8a6 0bbe 55ad 97bd 50b0 25bf
00000020: bc27 9dbe 7d56 2fbf 4415 42be b36b ad3d
00000030: d456 983c 1387 983d 8372 5cbe 79b8 093e
00000040: ca89 5cbe 98ea 33bf af57 a63d fc67 1f3f
00000050: 37aa c33c 4f72 0fbe b6d2 bf3d 3765 103f
00000060: 0605 a7bc 1741 3840 75b9 a2be 7dd9 3e3e
00000070: 2425 36be 4fb1 943c 6a21 8cbe ac1d 4b3e
00000080: c7aa c93c bb17 2040 51f9 7fbe 0113 bfbf
00000090: 9ae4 a6bc 4f41 913c 5bc2 72be 3012 c3bf
000000a0: 475c 3c3e d517 0e40 713a 303f 3108 77bf
000000b0: 0e17 1c3c ed05 b9bd 166e 343f 2c19 53bf
000000c0: d75f eb3e a058 78be 15b7 9c3e f414 90bf
000000d0: 6f60 3cbe ffa2 ecbf ab20 983e 6f7e 89bf
000000e0: 6c5b 6dbd b2c8 86be 1151 babe 8a97 9e3f
000000f0: 8552 1bbe 4f41 c5bf 2607 86be 3dfa 9b3f
00000100: 6149 503e eb8d df3c 5beb 683e b143 aa3f
00000110: 40d4 47be b3e8 78bf eb3e 993e 24e9 a93f
00000120: 2682 d53e 6ef7 203f 86ef ab3d 8ebd 49be
00000130: 338c 8b3e 9228 e7bf 2e4e 213e 763c 0abe
00000140: 4043 7b3e 4949 3f3f 9a5e aabe 7408 763f
00000150: 6e95 323e 2bc8 b5bf 9c71 b6be 71e8 763f
00000160: acec 43bd 09f3 6c3f 33e1 7e3e 6b12 3c3f
00000170: 2368 5b3e fe91 83bf a61d 983e b850 343f
00000180: aa5a ecbd 4b1c f0be b0e4 343e 0f99 183f
00000190: b79f d43d 75fd b2be 21c5 543e 7504 1c3f
000001a0: 0c8c 5f3d 98c0 283e aa0d 58be 4d27 bc3f
000001b0: 54fc be3b 7552 9dbe ee78 95bd 6997 bd3f
000001c0: 69a6 a8bc cc23 153f e8a8 11be 93c5 cd3f
000001d0: 7ce8 8c3e 8b6b 873d 942f ccbd 4d36 d03f
000001e0: 31d8 5b3f 758c c73f 08ac 2cbc 91c6 0f3f
000001f0: f0e6 67bd 5c82 cfbe 1691 193e 3dde 173f
00000200: df61 413f 4e73 ee3f 74f1 53bf 7e70 b73b
00000210: 752a 17bd 62e0 c3be 9242 4bbf c14f 113e
00000220: 0bfe 3e3f 3417 f23f 77d8 61be 7dfe a6be
00000230: 0ac0 43be 904d d53d 1be5 a9be 6534 d3be
00000240: fd37 f93e cf01 a43e 6bd3 753e 81ad 1ebf
00000250: 4dfa 7fbe ae43 3cbf e8da 733e 7ae6 37bf
00000260: 2c40 123f e3ab 6d3b 56a6 f13e cd23 2abf
00000270: fad5 91be 6d2e 59bf 12b1 ca3e c2bd 27bf
00000280: aff8 f13e b36d 10bf 2296 24bd 766a 33bf
00000290: a7ba 05bf 3ace 69bf 2e35 cc3c a145 2fbf
000002a0: 3b24 c53f c8bf 363f d237 ff3e 7759 28bf
000002b0: 19cc 9d3e 7e05 34bf 1846 bc3e fa4d 0cbf
000002c0: 398f b53f ed7b da3e 9382 8c3e 299a 87bf
000002d0: b0e5 803e 6491 46bf 277c 853e 739a 79bf
000002e0: 5f18 b73f ca6a 5a3d 12dc dabc 2399 5dbf
000002f0: 4996 dc3e 396e 4cbf 1f9e 16bd 4ffa 45bf
00000300: 4d1d d8bc 746e 113f 34cc c63c 7d77 1e3d
00000310: 37f9 6e3f 49f1 1cbf 30bc ed3d 8a46 d63d
00000320: 4fbc 1a3e 4f23 993f 735b 8e3b 0362 693e
00000330: 2fac 663f 8834 97bf 6dda 13be 051c 053e
00000340: 77ff 6b3e 410b 9d3f 3e66 64be e732 edbe
00000350: dc29 943f 55f6 8ebf 25c0 4cbe b3f1 a3be
00000360: 8686 55be b31b 2abe bea3 1bbe 3276 10bf
00000370: e876 5fbf 0415 26bf 59f7 d4bd eb0d 19bf
00000380: 9611 003e c08a 873e c43f 0d3d 3a8b dfbe
00000390: c9f6 5dbf 71d3 86bf dd9d 1d3e 870b acbe
000003a0: 4a12 883e 9af7 53be f175 5ebe 4da8 e7bf
000003b0: a943 8abf 5a9d 9bbf 7b30 45be d4ae e4bf
000003c0: 2e5b 01be 2fd1 01bf c9e8 ccbc ae08 7ebd
000003d0: 3a51 c13f 05fb 0e3f bd74 c13c 835c 0a3d
000003e0: cd45 223e cc19 113e ec6a e3bc d37f aabd
000003f0: acc6 1f3f 4f8a 263f e543 253d 8c84 18bd
-0.36247638 -0.7690299 -0.017174695 -0.67588556 0.12828255 -0.13637912 -0.07406107 -0.64722157
-0.30694377 -0.68491346 -0.18953425 0.084678076 0.01859609 0.07447638 -0.21528058 0.13449277
-0.21536937 -0.70279837 0.08122193 0.6226804 0.023884876 -0.14008449 0.09366362 0.5640444
-0.020388138 2.8789728 -0.31782117 0.18637653 -0.17787606 0.018150954 -0.27369243 0.19835538
0.024617566 2.5014484 -0.2499745 -1.4927675 -0.020372678 0.017731337 -0.23706953 -1.5239925
0.18394576 2.2202046 0.68839175 -0.96496874 0.009526981 -0.090343334 0.7048048 -0.82460284
0.45971557 -0.24252558 0.3060843 -1.1256394 -0.18396161 -1.8487242 0.29712424 -1.074171
-0.057948515 -0.26324993 -0.36389974 1.2389996 -0.15168197 -1.5410556 -0.2617733 1.2185742
0.20340492 0.027289351 0.22746031 1.3301908 -0.1951456 -0.9723007 0.29930815 1.3274274
0.41700858 0.6287755 0.08395295 -0.19701216 0.272554 -1.8059256 0.1575248 -0.13499627
0.24537373 0.747212 -0.332753 0.9610665 0.17439815 -1.4201711 -0.35633552 0.9644843
-0.04783313 0.9255834 0.24890594 0.73465604 0.21426444 -1.0278928 0.2971012 0.7043567
-0.1154073 -0.46896586 0.17665362 0.5960855 0.10382026 -0.34958997 0.20778324 0.609443
0.05457692 0.16479719 -0.21098962 1.4699494 0.0058284197 -0.30726972 -0.07298456 1.4811832
-0.020587163 0.58257747 -0.14224589 1.607592 0.27521122 0.06612309 -0.09970012 1.6266571
0.85876757 1.5589739 -0.010539062 0.56162363 -0.056616724 -0.40529144 0.14996752 0.59323484
0.75539964 1.8628938 -0.82790303 0.005598127 -0.036905725 -0.38257128 -0.79398453 0.1419058
0.7460639 1.8913331 -0.22055231 -0.32616034 -0.19116226 0.104151845 -0.33182606 -0.4125091
0.48675528 0.3203263 0.24006431 -0.61983496 -0.24997826 -0.7354077 0.23813975 -0.71836054
0.5712917 0.0036265783 0.47197217 -0.6646088 -0.28483564 -0.84836465 0.3958822 -0.6552392
0.47260043 -0.5641739 -0.04018224 -0.7008432 -0.52237934 -0.913303 0.024927702 -0.6846562
1.5401682 0.71386385 0.49847275 -0.6576151 0.30819777 -0.7032088 0.36772227 -0.5480648
1.4184333 0.42672673 0.2744337 -1.0593921 0.25175238 -0.775656 0.26071283 -0.97501296
1.4304312 0.0533245 -0.026716266 -0.86561793 0.43083408 -0.79855686 -0.03677189 -0.77335066
-0.02638116 0.56809163 0.024267294 0.03868817 0.9334902 -0.6130567 0.116081595 0.10462673
0.15110897 1.19639 0.0043443977 0.22791295 0.9010648 -1.1812906 -0.14438792 0.1299897
0.23046671 1.226906 -0.22304627 -0.46327898 1.1575274 -1.1168925 -0.19995172 -0.3202034
-0.20852098 -0.16612129 -0.15199181 -0.5643035 -0.8729081 -0.6487582 -0.1039874 -0.5978686
0.12506709 0.26473045 0.03448464 -0.4366091 -0.8670469 -1.0533277 0.15392251 -0.33602545
0.26576453 -0.20699921 -0.21724679 -1.8098236 -1.0801898 -1.2157395 -0.19256775 -1.7865853
-0.12632439 -0.50709814 -0.025013344 -0.062019996 1.5102913 0.55851775 0.023615235 0.033779632
0.1584694 0.14169997 -0.027760945 -0.08325162 0.62412524 0.6505479 0.040347952 -0.03723578

fc1.bias f4 [128]
00000000: e0e7 50be 24a1 0dbf 33c2 55bf 31c9 20be
00000010: e0f3 843e 3631 07c0 ad7d 8fbf 71b4 bfbf
00000020: 4f87 4cbf 5eae 8dbe 676f 123f 8b4d 3ebf
00000030: a423 2f3f c676 cc3b b864 aabf 84f0 0ebf
00000040: c839 46bf 90f5 bcbc 7fcc fd3e 1931 ccbf
00000050: f4a4 19c0 945a f9bf 8c9b 75bf 489b 80bf
00000060: 25e2 b83c af40 7cbf 4e85 fdbe 5bf3 89be
00000070: 352d c7bf 5ed2 4ebf 7081 6b3e 7e1d fcbf
00000080: 3789 1bbf 3731 2e3c a699 a4bf e016 b3bf
00000090: da9f b5be 3181 f0be 3eeb a7bf 010f 88bf
000000a0: 1dfe ea3d 988e 80bf c70a 96bf a488 17bd
000000b0: 468d 193f efd3 42bf eb7b 86be 7450 a2bf
000000c0: d7e3 73bf 4f98 2abf a112 31bf 5918 003d
000000d0: 4a11 0abd 0d28 72bf 85d5 1cc0 5d80 e0be
000000e0: 5f8d fc3e 4561 dabf 8f9e 62bf 4b5b 59be
000000f0: fed8 4cbe 9dc2 88bf cb99 45be 76dd 22bf
00000100: 513d 6bbf 6e6f 9f3e 3203 41bd e0dd ed3d
00000110: a4a8 6cbf fab9 22c0 a86c f3be 88c2 29be
00000120: e68a debe 9e47 c1bf 3b06 85be cc5c 31bf
00000130: b8ee ec3e 7b54 b5bd fb72 13bf 06a5 5fbe
00000140: 8279 fdbf f16e 49bf 1381 8fbd 6fd7 81bf
00000150: c516 b8be 5a49 ad3e 060d edbf 13c5 35bf
00000160: d1ad 283f 8096 093c c10b 3abf 7371 8c3e
00000170: b8b4 95bf 9a5e aabe 94c2 23bf 25db 04bf
00000180: 508e 17bf bc2d 65bf bf25 6fbf fef5 7bbf
00000190: f5a2 6dbf 16f0 d6bf a711 17bf 3a46 16bf
000001a0: e895 39bf fb79 d53d 49c2 42bf d03a 01c0
000001b0: b441 6ebf bbe3 babf 9eb0 96bf 172c 79bf
000001c0: 12c8 23be b423 d5b9 9c18 52be 97e8 babf
000001d0: 0dbe 20c0 f437 13c0 f765 1c3d 170a 21c0
000001e0: 9810 23bf bc67 58bf 9cc0 d13d a442 b9be
000001f0: c654 20bf d975 85bf 3e20 e8bf 04b3 f5be
-0.20400953 -0.55324006 -0.8349945 -0.15701748 0.25967312 -2.1123786 -1.1210228 -1.4976941
-0.79893965 -0.27672094 0.57201236 -0.7433707 0.6841376 0.006239745 -1.3311987 -0.5583575
-0.7743192 -0.023066312 0.4957008 -1.5952483 -2.400693 -1.9480767 -0.9594047 -1.0047388
0.022568772 -0.985362 -0.49515766 -0.26943478 -1.5560671 -0.80789745 0.22998595 -1.96965
-0.6075625 0.010631851 -1.285939 -1.3991356 -0.3547352 -0.46973565 -1.3118665 -1.0629579
0.114742495 -1.0043516 -1.1722039 -0.036995545 0.5998119 -0.76104635 -0.26266417 -1.2680802
-0.9526953 -0.66638654 -0.6916905 0.03127322 -0.033707894 -0.9459236 -2.4505322 -0.43847933
0.49326608 -1.7060934 -0.8852319 -0.21226232 -0.20004651 -1.0684391 -0.19296949 -0.6361917
-0.91890436 0.31139702 -0.047122188 0.11614585 -0.92444825 -2.542601 -0.47543836 -0.16578114
-0.43465346 -1.5099981 -0.25981316 -0.6928222 0.46275878 -0.08854004 -0.5759732 -0.21840295
-1.9802706 -0.7868491 -0.07007041 -1.014387 -0.35954872 0.33845025 -1.85196 -0.71003836
0.6589022 0.008397698 -0.72674185 0.27430305 -1.1695776 -0.332753 -0.6396878 -0.5189689
-0.59201527 -0.8952291 -0.9341697 -0.9842223 -0.9282678 -1.6792018 -0.5901131 -0.5870091
-0.72494364 0.104236566 -0.76077706 -2.0192146 -0.93069005 -1.4600748 -1.1772649 -0.973329
-0.1599429 -0.00040653127 -0.205172 -1.4602231 -2.5115998 -2.30029 0.03818318 -2.5162408
-0.63697195 -0.84533286 0.102418154 -0.36183655 -0.62629354 -1.0426589 -1.813484 -0.4798814

bn1.weight f4 [128]
00000000: 0cf0 c43d c923 033e fb7b 083e c695 33be
00000010: 3ba4 c03e ffd5 a03f 19f1 513e 63e3 4c3f
00000020: 4ee9 343e b5a2 a03e 0043 7e3e 1513 cb3e
00000030: 2310 6b3e b14c 713e 7a57 a03e 67eb 90bd
00000040: 472b 15bd c5a4 763e c716 6b3e f9b2 b63e
00000050: 78e8 2a3f e6b3 bc3e 7c00 9a3e 83e3 6e3e
00000060: 5802 e03e c603 b03d 3938 0dbe 8c07 ae3e
00000070: 396e 993e 5a7b a73e f16e 573e c0a3 793e
00000080: 9887 443e b542 9c3e 8762 833e 9e6d 703e
00000090: 3abb 143e b224 013e 4bd7 413f 3da5 bf3e
000000a0: e0fe 563e 46d3 3b3f f416 4c3e 0c71 9a3d
000000b0: ba02 843e 1cfe 253e 5938 753e d2ee 193f
000000c0: 84e3 1c3e 0a17 3c3e 4ef1 523e 8dcf 813e
000000d0: 3ab5 e03e fa7a d63e 2996 b73e 48a0 5c3e
000000e0: 99ae 883e 4ec2 e43e abd7 843e 7f82 253e
000000f0: 070a 0c3e 3a16 263e 4e1e f83d 6e8d eb3d
00000100: e160 413e dabf 3a3e 6316 0c3e 397f cb3e
00000110: 45a3 993e b420 b93e 1db4 543e 7d43 df3e
00000120: d6be 0e3e 31ee 6c3f 5381 5c3e 0bbf c2be
00000130: 2348 2d3e ebf6 d63e 4857 263e cf3a e13e
00000140: fbda d23e c04e 943e febe 623e 60ad 9b3e
00000150: 431b 9c3e 0aab d83e bb14 6d3e 41ff 863e
00000160: bcbb 923e 3864 263e f925 553e 4581 923f
00000170: ed4f 1a3f 7b70 533e 5ae5 0d3f 1a63 4d3e
00000180: b3a6 a23e 1570 243e 6960 2b3e 37ea b83e
00000190: be6f 00be 768c c93e 3a77 423e 0c55 623e
000001a0: 7432 483e dc4a 773e f038 5b3e 727e 4a3f
000001b0: 4c34 ec3e 00ce f63e 5426 af3e 212b 813e
000001c0: 330c bb3e efee bb3e 8bad 233e 3f16 863e
000001d0: ae17 473e 7c75 5a3f 5c1c 413f 997a 623e
000001e0: dcc7 6c3e 3115 b63e aa7c 8b3e 2b25 f43d
000001f0: 3eb6 ed3d b8fa 893e 0f1b c83e 547b 303e
0.09616098 0.1280662 0.13328545 -0.17537603 0.37625298 1.2565306 0.20502128 0.80034465
0.17667124 0.31374136 0.24830246 0.39662996 0.22955374 0.23564412 0.3131674 -0.070761494
-0.036418226 0.24086292 0.22957908 0.3568342 0.6676097 0.36856002 0.30078495 0.23328976
0.43751788 0.0859447 -0.13790978 0.33990133 0.29966906 0.32711297 0.21038415 0.24378872
0.1919235 0.30519643 0.25661108 0.23479316 0.14524546 0.12611654 0.75719136 0.37430754
0.20995665 0.7336925 0.19930631 0.07541093 0.2578333 0.16210216 0.23947276 0.60130036
0.15321165 0.18368164 0.20599863 0.2535366 0.43888265 0.418907 0.3585675 0.21545517
0.26695707 0.44679493 0.25945792 0.16163062 0.136757 0.16219416 0.12115155 0.11501585
0.18884613 0.18237248 0.13680415 0.397455 0.30007377 0.36157763 0.20771833 0.43606177
0.13939986 0.9255095 0.21533708 -0.3803638 0.16922049 0.41985258 0.16244233 0.4399018
0.41182694 0.2896633 0.2214317 0.30405712 0.3048955 0.42317992 0.2315244 0.26366618
0.28658855 0.16249168 0.20815267 1.14457 0.6027821 0.20648377 0.5542809 0.20057335
0.31767806 0.16058381 0.16735996 0.36116192 -0.12542626 0.39364976 0.18990794 0.22102755
0.19550496 0.2414965 0.21408439 0.7909919 0.4613365 0.4820404 0.3420893 0.25228217
0.36532745 0.3670573 0.1598417 0.26188847 0.19442627 0.85335517 0.754339 0.2211708
0.23123115 0.35563043 0.2724355 0.11921152 0.116070256 0.26949096 0.39083144 0.17234546

bn1.bias f4 [128]
00000000: 53bd 88bc 60f4 053d 8d5b 323d 873a eabc
00000010: 8346 003e ada4 a63e 0690 16be 3362 593e
00000020: cbe0 f0bd 1654 dc3d 789b cb3d 7272 3e3e
00000030: 5185 6f3c fc53 d93d becd 2b3e ac20 7a3d
00000040: 5259 26bd 73a1 c53d d875 fe3d 77b9 66be
00000050: 36b6 9d3e b6ec 6c3e a45d 363d 2074 a2bb
00000060: 9f08 f93d 9975 e23b 9ec3 203f b40a d1bc
00000070: ecb2 cd3d 7b77 013e 6bf7 463d be03 023e
00000080: 7806 f83c 1318 0d3e 0d3b 043e 341e b33c
00000090: 62b1 953c 2fdf cc3b deab 613e ccf9 0e3e
000000a0: 42c0 593d 346b 5e3e 8053 653d f2e1 023c
000000b0: f409 6dbd 3fb7 173d 27c9 b03d 0c1b d53e
000000c0: 839b 1e3f 60f4 0e3d 6a18 0c3d d38f a7bc
000000d0: 8f74 ee3d a992 a03e 7dcc 7a3e 17c9 653d
000000e0: 3d13 65bc 609c 603e 2f53 ee3d 5210 a63c
000000f0: a4db 183c f0ce 16bb d4d4 753c af3b b03e
00000100: c2a2 e0bc 7b7e 423d 1315 cb3c 93cf 5c3e
00000110: 7c49 cc3d a857 b43e ff0a 243d 2f76 fb3d
00000120: 035e 1ebb f26f 053d a0e0 203d 3a62 bdbd
00000130: c80e 753d 52b0 d03d 5cd0 c63d 5634 f83d
00000140: 0859 19bd de9f 393e 334c ec3c e5c3 003e
00000150: 20b9 2b3e ed52 1f3e 6bff ec3d 26e2 933d
00000160: faa7 1c3d cc59 8a3d 2a5f 673d 414d 973e
00000170: 5456 043f d352 8dbe 020d 30be 8a4d ec3c
00000180: e8d4 353d fa0e 90bc d8e5 403c c07c eb3d
00000190: 3f0f 5cbc 33b2 9b3d 3c98 353d 2c78 763d
000001a0: 3971 0e3c 1d8b 443c 2b94 953d ba9d 033f
000001b0: 02f9 793e 957a 8f3e 8d23 493e 960d 4c3e
000001c0: f911 b83d 4ebd c73d 09e8 98bc 5a88 323d
000001d0: e58d 8b3d bfa2 d63d 0f68 0fbe 1b8a 8d3d
000001e0: 6b42 353d 5358 f53d 22b8 663d de7b 653c
000001f0: a709 383d 49a8 063e 0356 8bbd 38ae 1ebd
-0.01669184 0.032703757 0.04354434 -0.028592361 0.12526898 0.32547513 -0.14703378 0.21228866
-0.11761626 0.107582256 0.09941763 0.18598345 0.014619187 0.10611722 0.16777703 0.061066315
-0.040612526 0.096499346 0.12424821 -0.22531687 0.30803078 0.23137173 0.044522896 -0.004957691
0.121598475 0.0069109914 0.6279849 -0.025517799 0.10043892 0.12643234 0.0485758 0.1269674
0.030276522 0.13778715 0.12913151 0.021864988 0.01827306 0.0062521915 0.22038218 0.13962477
0.053161867 0.21720582 0.055987835 0.00798844 -0.05787082 0.03703999 0.08632117 0.41622198
0.6195604 0.034901023 0.03420297 -0.020454323 0.116433255 0.31361893 0.24492069 0.056099977
-0.013981638 0.21934652 0.1163696 0.020271454 0.00932971 -0.0023011528 0.015004355 0.34420535
-0.027421359 0.047483902 0.024790322 0.21563558 0.099749535 0.35223126 0.04004955 0.12278401
-0.0024164922 0.032577462 0.03927672 -0.09247251 0.05982855 0.101898804 0.0970771 0.12119357
-0.037438422 0.1812739 0.028844928 0.12574728 0.16769838 0.15558977 0.115721546 0.07220869
0.038246132 0.06755409 0.05648724 0.29551128 0.51694226 -0.27602252 -0.17192462 0.028845567
0.044392496 -0.017585266 0.011773549 0.114984035 -0.013431369 0.07602348 0.044334635 0.0601732
0.008693987 0.011996058 0.073036514 0.51412547 0.24411395 0.2802321 0.19642468 0.19927058
0.08987803 0.09752904 -0.01866533 0.043587066 0.068141736 0.1048026 -0.14004539 0.06911107
0.044252794 0.11979737 0.056327946 0.014006583 0.04493108 0.13150133 -0.06803515 -0.038740367

bn1.running_mean f4 [128]
00000000: 9e08 3541 a523 453f 05be d73f d8b3 6940
00000010: 78dd 8f40 16fa 8240 c4e2 3541 474a c13f
00000020: 5655 1940 2d4a 0940 ccdf 7340 49ad 2a40
00000030: 3b19 373f e36a 2740 fc4e bc40 7123 1940
00000040: 3cef 6c41 4e73 af40 a7bd a440 28c5 5640
00000050: 3d51 eb40 897a 7441 6951 0c40 9bcd 1a41
00000060: 31bd aa3f 5402 873d a3e0 f640 0184 fa3f
00000070: ee76 8541 51b3 7840 77d8 a43f 5613 5741
00000080: 18be e83f 8b1e e23f 2b7c 3841 d068 5e41
00000090: 75ca 413f 088f 2440 6cfb 4340 7159 d940
000000a0: 46be 8c40 0bc5 993f 359b aa40 8188 1840
000000b0: 7ee5 9840 d0fb a740 04a0 2f41 898b 4e41
000000c0: 01cd f640 1bd3 0940 108e b440 a4e3 4940
000000d0: c440 0d40 6b62 c440 c090 9641 b7b2 1640
000000e0: 9886 9540 f14c 8041 a597 e840 0569 473f
000000f0: 3d2e 303f b7cb a23f c0bb 0e40 41d4 9341
00000100: 433b 5940 369c da40 ae9c 203f 1088 fe40
00000110: 1e86 a140 96b9 c741 44ef ae40 7c5c 783f
00000120: 3877 2841 151d 7e40 46ed d43f 81c1 2940
00000130: fa70 0741 854b 563f 370a 4c41 497c d63f
00000140: 8019 2441 5ead e641 f620 6840 b0df 3440
00000150: 440e 0f41 9c6a a141 a2d9 1c42 9bde 1541
00000160: 8ec2 943f 0a80 7841 4ba9 d640 cb2e b93e
00000170: a502 2f41 a0cf ee40 ed96 c841 6554 d43f
00000180: fccf 9540 a8fd 6641 8f59 e93f 50fb d540
00000190: 6db4 2b3f 101c 4940 fb58 0340 54c9 3a40
000001a0: b1b3 9540 50cb ba3f 0e7c 0540 3cdb 9641
000001b0: 441a e140 6eb4 2d41 18b3 0841 f719 3f41
000001c0: ecca 6f3f 6179 923f b6e6 1940 effe e740
000001d0: 5ed3 2442 f8d1 fc41 3a77 8b40 7d35 a042
000001e0: 68ac bd40 c519 4d40 6e43 893f a355 cd3e
000001f0: 2913 f53f 483d 2041 1137 8f40 4fc6 9440
11.314604 0.77007514 1.6854864 3.6516018 4.4957848 4.093028 11.367863 1.5100793
2.3958335 2.1451523 3.8105345 2.6668265 0.71522874 2.6158988 5.8846416 2.3927882
14.808407 5.4828253 5.148151 3.3557835 7.353667 15.279916 2.192469 9.675197
1.3338987 0.06592241 7.7149215 1.9571534 16.683071 3.8859446 1.287856 13.442221
1.8183012 1.7665571 11.530314 13.900589 0.7569955 2.57123 3.0622206 6.792168
4.3982267 1.2013258 5.331446 2.3833315 4.778014 5.249489 10.976566 12.909066
7.712525 2.1535099 5.6423416 3.154519 2.207078 6.137014 18.820679 2.354658
4.67268 16.037569 7.2685113 0.7789462 0.68820554 1.2718419 2.2302094 18.47864
3.394242 6.8315687 0.62739074 7.954109 5.0476217 24.965618 5.466707 0.9701612
10.529106 3.970525 1.663491 2.6524355 8.465082 0.83708984 12.752494 1.6756679
10.256226 28.834652 3.6270118 2.8261528 8.940983 20.177055 39.212532 9.366847
1.1621873 15.53126 6.7081656 0.36168513 10.938146 7.462845 25.073694 1.6588255
4.6816387 14.436928 1.8230456 6.686928 0.6707218 3.1423378 2.052306 2.918538
4.678185 1.4593296 2.0856967 18.857048 7.0344563 10.85655 8.543724 11.943839
0.9366901 1.1443292 2.4047065 7.24987 41.206413 31.602524 4.358304 80.10447
5.9272957 3.2046978 1.0723703 0.40104398 1.9146472 10.014961 4.475472 4.6492076

bn1.running_var f4 [128]
00000000: 198c 9e43 c6dc 8741 9542 3442 6854 2943
00000010: cf38 3f43 682d 0042 8c73 3143 b647 0b42
00000020: 01c7 7042 3519 9542 af3f e542 d9fb 1242
00000030: a46b 5641 7c6e 5c42 0e5d d542 3dcf 8742
00000040: b14b 9543 42bf 1f43 6531 5443 5089 ab42
00000050: 97f4 d942 4357 9e43 3520 9942 f354 4543
00000060: 64f9 ca41 0ff3 543f e255 bc43 907f 7e42
00000070: 80c3 8743 bbd0 d842 110d 1942 9a1d c943
00000080: cf9d 8042 4f4a 4542 53ba 9d43 b20c 7b43
00000090: b4e4 9241 9ef7 5342 b9cd 0e42 efee fb42
000000a0: 2f4c 0a43 99ad dd41 7a45 3e43 f197 4342
000000b0: 48fc a642 5588 e342 3fee 6943 aff0 6143
000000c0: d79e 8543 a565 ac42 3771 2543 3715 c342
000000d0: eb23 9442 b403 ad42 18e8 0743 e8d6 5542
000000e0: 7c71 2543 e5b8 b842 b7e1 8d43 bae6 ab41
000000f0: b38b 3741 9125 1b42 8ccf a242 7b0d 1044
00000100: f509 dc42 7bf4 7643 780d 5941 ce14 5943
00000110: 2aab 2b43 7a19 2843 8b7c 0043 98c9 8841
00000120: 06de a143 318f e341 8ff1 3b42 8871 ab42
00000130: be93 0743 27b4 eb41 5008 5343 216d 2142
00000140: 1377 8b43 458a 2c44 5c1d bf42 b4ef 7342
00000150: 7add 1b43 1e42 7643 5ec6 df43 459f 8343
00000160: ee31 a341 3cfb ac43 f14e 8743 86ef 1241
00000170: ff10 4843 ab89 8043 ac7f 4144 9119 5942
00000180: 1160 9b42 8d92 9a43 377d fe41 73a4 0e43
00000190: 4f2b 9a41 e7dd 4a42 e559 3d42 cb6e b842
000001a0: 7f0a 0243 db57 3d42 6eb0 6b42 0be7 ba42
000001b0: 8b25 f742 494f 9143 d23e 1143 64b9 5643
000001c0: ce90 e141 cb38 d041 5d27 2142 3ae2 8843
000001d0: af0a 2744 e26f da44 1441 5f41 b0bc 5344
000001e0: 8a9f 0243 16ab 7942 4724 c141 253d db40
000001f0: df9e 4e42 c30e 9c43 4053 f542 a7a4 cb42
317.0945 16.9828 45.06502 169.32971 191.22191 32.044342 177.45135 34.82003
60.19434 74.54923 114.62438 36.745945 13.401279 55.107895 106.68175 67.90476
298.59134 159.7471 212.19295 85.76819 108.977715 316.68173 76.562904 197.33183
25.371773 0.8318338 376.67096 63.624573 271.52734 108.40768 38.26276 402.23126
64.30822 49.322567 315.45566 251.04959 18.361671 52.991814 35.7009 125.96667
138.29759 27.709764 190.2714 48.89838 83.49274 113.76627 233.93065 225.94017
267.24094 86.198524 165.44225 97.541435 74.07015 86.50723 135.90662 53.45987
165.4433 92.36112 283.7634 21.48766 11.471606 38.786686 81.405365 576.21063
110.01945 246.955 13.565788 217.08127 171.66861 168.09952 128.4865 17.098434
323.73456 28.444918 46.985897 85.72174 135.57712 29.462965 211.03247 40.35657
278.93027 690.16046 95.55734 60.984085 155.86514 246.25827 447.54974 263.2443
20.39938 345.96277 270.61673 9.183477 200.06639 257.07553 773.9949 54.274967
77.68763 309.14493 31.81114 142.64238 19.271147 50.7167 47.337788 92.21639
130.041 47.335796 58.922295 93.451256 123.573326 290.61942 145.24539 214.72418
28.195705 26.02773 40.28844 273.7674 668.16693 1747.4963 13.953388 846.94824
130.6232 62.417076 24.142714 6.851214 51.655148 312.11533 122.6626 101.82159

fc2.weight f4 [128, 132]
00000000: c72f ad3b c261 dbbd 0660 16be a343 4c3d
00000010: 5307 8dbd bc2d 99bd 874e 31bd 0225 5bbd
00000020: 2ec7 8c3d ee30 ebbd 0dcd 063d d40a d1bd
00000030: 58aa c3bc 31a9 4ebd 947c 9ebd ed6b 08be
00000040: fc07 613e 46de 9dbd e1be 99bb 4a7f 1fbd
00000050: f732 0c3c 9cd6 9e3d e71a c4bd 4fe2 b13c
00000060: 40a1 b2bd 6baf 8ebc c30c afbe f15a 8b3c
00000070: ea80 efbd e29c d9bc 4611 e7bd 1cc6 23bd
00000080: 91e8 9cbd 6c66 04be 9fc7 ffbc 7434 12bc
00000090: 982a 96bd 939d 513b 7025 843c 00b0 97bd
000000a0: 42f4 363d 3382 f5bd 8830 ae3d 900c 40be
000000b0: 6d53 2e3c 75c5 69bd 098e 073d 27c3 1bbe
000000c0: 7761 90be a223 25bd df7e 863d c996 e33c
000000d0: 2578 03bd 0b6f 98bc 6516 bcbd 2f93 09bd
000000e0: a376 b2bc 8059 993c dd35 97bd f623 17be
000000f0: 88c0 97bd e7ca 7e3d 2674 703d 28d8 9bbe
00000100: bcf4 863d 8e6a d4bc 52a3 a33c 4fea c6ba
00000110: 114b f73c 1dd0 3bbd 9bef 303c 9d5c 43bd
00000120: 0522 91bc c017 ff3b e940 c7bd 013e 4e3e
00000130: f772 1b3b a185 86bd 567b d4bd 31e9 873d
00000140: eee0 e03c 07d0 3e3c 2663 073e db84 a3bd
00000150: 037a 843d db0f 013d c0d4 4c3c 81c6 ab3d
00000160: fd62 09be 7eeb dfbc d96f 4c3c 6dae 90bd
00000170: 142c 38bd 3a53 5c3e 5fc6 4ebc c1d0 71bd
00000180: 2fa0 2a3d f6e7 7abd 9680 10bd c6aa 28bc
00000190: 9a7a 263d 6466 a7ba 11e9 e8bc dedf ccbb
000001a0: b971 35bd 67d4 bb3b 37b1 aebd b185 83bd
000001b0: e254 0fbe 1580 e4bd 234e 89bd 9708 d8bd
000001c0: 995e c13c 4443 71bd 8140 063e 9c62 673c
000001d0: 3340 373d 9869 b3bc 59ca e0bc aa5f e2bd
000001e0: 916e 253d 1ed6 10be f4dd b1bd d43b 643d
000001f0: 31e6 22bd 0697 babd 74a1 483d 4081 87bd
00000200: f6f2 11bc 9b50 1bbd 3888 cd3d 112f d3bc
00000210: fac2 71be 1027 263f c31c 32be ea9d 9ebe
00000220: c66d b7be 894c c3bd 0aba 383e 27d1 1bbd
00000230: 856e a73e 0d00 5bbe 1445 663d 08e8 c7be
00000240: 9404 983e ff71 30bd 6afe 0bbd eb7b f4be
00000250: 1302 333f c9fb 653f 1c8b 7a3d 8ca4 d83e
00000260: 43de 1abf 87c2 9b3e 2389 e0be 89cb a83e
00000270: a043 76bf bbbb 18bf 9455 2fbf 471d 003e
00000280: dc6a 16bf bb93 37bf 2b70 7b3e 1385 623d
00000290: c00f e5bf 47a1 d2bc d985 f6be 9454 733e
000002a0: 5f4c b83e e8bd b3be 1627 423e be32 0cbf
000002b0: 0675 563e d569 1bbf 828e b3be 280d f73d
000002c0: 3958 60bf a90c 79bf 50c6 ffbe f97b d6bd
000002d0: 15ff 32bf c258 f5be f2fa d3bd 1da2 193f
000002e0: 88a0 cbbe cc9b 88bf 0fbc 06bf e4c2 17bf
000002f0: 63b8 f53d 166b 9c3e 86ea 13bf 8826 df3e
00000300: 0846 c73b 7b1c 06be 7b85 9b3e edc8 1cbf
00000310: ec74 303d b2e0 50be 484c a1bd cc52 3ebe
00000320: e1ab 8cbf e510 aebf 3bf0 d13d ab24 29be
00000330: 6ec4 0bbf 83c0 b03d df41 0ebf 70cc 23be
00000340: 46d0 adbe c1d2 37bf 3038 a6be ac48 cfbd
00000350: 304b 75be ff1e c2be 8588 063e ddde 41be
00000360: 3bd5 0fbf eb8d b9bd 3aa2 b4be 6f8c d9be
00000370: 6577 643e a44c b93d 82db 9cbd e9f8 2abe
00000380: 0ad0 4ebf c10f 0e3f 2b8f 5c3e c973 9bbe
00000390: 359e d03d 8440 3dbe 4924 123d 5134 0a3d
000003a0: da3f 3c3f cc2d 923e 6c05 d0bd 76cf e13e
000003b0: 0326 6c3c f24d 033d 38d4 2ebf 4662 1cbf
000003c0: 14c8 98be e2d5 5fbf c280 7fbf 8711 14bf
000003d0: 961e 44be e84d aabd b3ee 493f a84b 93bd
000003e0: 1de2 e2bd f1e4 933e f693 46be e943 47bf
000003f0: 9e09 9dbe 8c59 993e 97ef 9ebf 5dee 70bf
0.0052852365 -0.10712005 -0.14685068 0.04986919 -0.068861626 -0.07479426 -0.04328778 -0.05350209
0.06873928 -0.11483942 0.032910395 -0.102071434 -0.023884937 -0.050454322 -0.07738605 -0.1332242
0.21975702 -0.07708411 -0.004691944 -0.03893975 0.008557073 0.07755777 -0.09575444 0.021714358
-0.08722162 -0.01741763 -0.34189424 0.017011138 -0.1169451 -0.026564065 -0.112825915 -0.039983854
-0.07661546 -0.12929696 -0.031223116 -0.008923639 -0.07332343 0.003198479 0.016131133 -0.07406616
0.044666536 -0.11987724 0.0850535 -0.18754792 0.010640007 -0.057073075 0.03309444 -0.15211163
-0.2819936 -0.040317185 0.065671675 0.02778186 -0.032097 -0.018607637 -0.09183959 -0.03358763
-0.021785086 0.018719435 -0.073833205 -0.14759812 -0.07409769 0.06220522 0.058704518 -0.30438352
0.06589648 -0.025929715 0.019975338 -0.001517603 0.030187162 -0.04585277 0.010799314 -0.047695745
-0.017716417 0.0077848136 -0.097291775 0.2014084 0.0023719647 -0.065684564 -0.10375087 0.066362746
0.027451005 0.011646277 0.13221416 -0.079843245 0.064685844 0.03150926 0.012501895 0.08387471
-0.13416667 -0.027333971 0.012477838 -0.07064519 -0.04496391 0.21516123 -0.012620538 -0.059036974
0.04165667 -0.06125637 -0.03527888 -0.010294622 0.040644266 -0.0012771604 -0.028431447 -0.006252273
-0.044297908 0.0057321074 -0.08529895 -0.06421984 -0.13997224 -0.11157242 -0.067043565 -0.105485134
0.023604678 -0.05890204 0.13110544 0.014122631 0.04473896 -0.021900937 -0.027440237 -0.11053403
0.040388647 -0.14144179 -0.08684912 0.05572112 -0.03977031 -0.09110837 0.0489821 -0.06616449
-0.008908024 -0.03791867 0.10035747 -0.025779279 -0.23609534 0.64903355 -0.17393784 -0.30979854
-0.35825938 -0.09536082 0.18039718 -0.03804126 0.32701507 -0.21386738 0.05621822 -0.39044213
0.29690993 -0.043077465 -0.034178175 -0.47750792 0.6992504 0.8983732 0.06116782 0.4231304
-0.60495394 0.3042185 -0.43854627 0.32967785 -0.9619694 -0.59661454 -0.68489957 0.12511168
-0.58756804 -0.71709794 0.24554507 0.05530269 -1.7895432 -0.025711669 -0.48148993 0.23762733
0.35995767 -0.35105824 0.18960223 -0.54764926 0.20943078 -0.6070836 -0.35069662 0.12063056
-0.8763462 -0.9728494 -0.49955988 -0.10472865 -0.69920474 -0.4791928 -0.103505984 0.6001299
-0.39770913 -1.0672545 -0.52630705 -0.59281754 0.119980596 0.3055045 -0.5777973 0.43584085
0.0060813464 -0.13096802 0.30375275 -0.6124409 0.043080255 -0.20398214 -0.078758776 -0.18586272
-1.0989953 -1.3598906 0.102508985 -0.16517894 -0.545966 0.08630469 -0.5556926 -0.15995955
-0.33947963 -0.7180596 -0.32464743 -0.10121283 -0.23954463 -0.37914273 0.13138016 -0.18932672
-0.5618474 -0.09060272 -0.3528002 -0.42489955 0.2231117 0.09047821 -0.07659055 -0.16696514
-0.8078619 0.5549279 0.21538989 -0.30361775 0.101864256 -0.18481642 0.035679135 0.0337413
0.7353493 0.28550565 -0.10157284 0.44103593 0.01441336 0.032056756 -0.6829257 -0.61087453
-0.29840147 -0.87435734 -0.99805844 -0.57839245 -0.19152293 -0.08315641 0.7887985 -0.07192165
-0.11078284 0.28885606 -0.1939238 -0.77838 -0.306714 0.2995113 -1.2416867 -0.94113714

fc2.bias f4 [128]
00000000: 6027 6fbe ee82 23bf 5fea 99bd 46ce a0be
00000010: e3f8 14bf ceb5 1cbf 0c9d f7bd 6ba8 75be
00000020: b654 28bf 1e0f 0cbe e95f 7ebe 0d6c 09bf
00000030: 2d30 80be 3937 acbe 59cb d1be daf5 53be
00000040: 7082 1ebf 84af 67be a9f8 ebbe dfc1 87be
00000050: e553 8ebe 7a95 e6be a85b dabb eb0b 27bf
00000060: a38e babe 290b 46be 9288 83be df04 efbe
00000070: 68c7 ffbe 1c06 84be 7b7a c0be b49e bdbf
00000080: beb0 8abe 7018 cbbb 8e42 8ebe eb49 f0be
00000090: 64c6 b7be 1ece 21be 5efc a7bd a07a b8be
000000a0: 2a00 a6be cfe5 c7bd 954d b0be 3fe0 a0be
000000b0: e8a4 60be 34b6 93be 0f39 03bf 2986 c1be
000000c0: bfd2 debe 45ff b3be 16ad dabe 3ca6 82be
000000d0: 94a2 a3be 7a84 92be e77c 73be fed5 bcbe
000000e0: 643b 0cbf f716 c63c a0a8 6abf aba7 41bf
000000f0: 12ed 8dbe cfc7 1ebf 4dbd 29bf f9ad 70be
00000100: f1b8 bbbe ad22 aabe 7fc8 c5be 869b 01bf
00000110: 7c16 763e 7cf8 233e e391 9dbe e4a6 56be
00000120: 2b45 83be b1a3 7d3e 3461 34bf 09b4 b6be
00000130: 95d4 d6be db6c 1abf f1ca a0be e225 e9be
00000140: c7b2 85be a8fd e4be 84ce 5fbe 250f 663c
00000150: 8a08 eabe de91 5ebe 4fc7 b5be c31f e9be
00000160: b153 48be dcd8 46be 13ac 1bbf a363 3bbf
00000170: 7a2a a73e a940 c7be 54f4 b9be 52c0 0fbf
00000180: 0010 19bf a716 d0bd 4112 0ebe ed8c e7be
00000190: 9480 1cbe 5bcc dabe af20 6dbe db55 ffbe
000001a0: 11ff 87be d967 babe 35fb 56be 9894 11be
000001b0: de13 a8be 600f 55be b031 24bf 018c 31bd
000001c0: d2e6 eebe fb22 15be e278 81be b78b 68be
000001d0: 0d8a c3bd ef70 02bf 47aa 59be 3b4b bcbe
000001e0: 367d 3dbf dc30 cabe 1a15 adbe bd10 29bf
000001f0: d204 1abf 709c 9abe 1ba1 f5be bf61 20bf
-0.23354864 -0.6387166 -0.07515406 -0.31407374 -0.5819227 -0.6121491 -0.12090501 -0.23990028
-0.6575426 -0.13677642 -0.24841274 -0.536805 -0.25036755 -0.33635882 -0.40975454 -0.20699254
-0.6191778 -0.22625548 -0.4608815 -0.265151 -0.2779838 -0.45035917 -0.0066637583 -0.6525256
-0.36436948 -0.19340195 -0.25690132 -0.46683404 -0.49956822 -0.2578591 -0.37593445 -1.4814057
-0.2708797 -0.0061979815 -0.27785152 -0.46931395 -0.35893548 -0.15801284 -0.08202432 -0.36031055
-0.32422 -0.097606294 -0.3443419 -0.31421086 -0.21937907 -0.28849947 -0.5125894 -0.3779767
-0.43520162 -0.35155693 -0.4271018 -0.25517452 -0.31959975 -0.28616697 -0.23778115 -0.36882013
-0.5477812 0.024180872 -0.9166355 -0.75646466 -0.27719933 -0.62023634 -0.66304475 -0.23503865
-0.36664537 -0.3322958 -0.3862953 -0.50627935 0.24032015 0.16012758 -0.30775365 -0.20962101
-0.25638708 0.24769475 -0.7046082 -0.3568423 -0.41959062 -0.6032235 -0.31404832 -0.45536715
-0.2611296 -0.44724774 -0.21856123 0.014041697 -0.4570964 -0.21735331 -0.35503623 -0.45532045
-0.19563176 -0.19418663 -0.6080944 -0.7319891 0.32649595 -0.3891652 -0.3631922 -0.5615283
-0.5979004 -0.101605706 -0.13874151 -0.45224705 -0.15283424 -0.42734036 -0.23156999 -0.4987019
-0.26561788 -0.36407354 -0.20994265 -0.1421684 -0.32827657 -0.20806646 -0.6413832 -0.04334641
-0.46660477 -0.14564125 -0.2528754 -0.22709547 -0.095478155 -0.50953573 -0.21256362 -0.36776146
-0.7401918 -0.39490402 -0.33805162 -0.66041166 -0.60163605 -0.30197477 -0.47974476 -0.6264915

fc3.weight f4 [1, 128]
00000000: b98f 61bd 9501 363e 928a 9f3d aafb 6d3d
00000010: eed4 2ebe af13 863d b30e 6abd a9bb 203e
00000020: 8b91 653e 6864 463d 7224 463a 684c b9be
00000030: 69cf 06bc c5a3 993a 2396 d3bc 7906 393d
00000040: e33c 25be 5f1a 5c3d ea3f 2cb9 728e 8abb
00000050: e74a 2cbb 7c09 04be a0e5 6dbd 02ae 8d3e
00000060: 02b9 b93c 95f5 e9bc 1995 10bd f37c a4bd
00000070: 5f2c 1dbe d4f6 60bd 2622 06bd 56fe 093e
00000080: de09 31bc e8c2 cc3d aa3a b03d b313 843c
00000090: c638 05be 88c0 083d 6de9 d6b9 217f cebe
000000a0: 35aa f0bd b0a5 6d3d c606 533d 4e73 46bd
000000b0: e939 f53c fe30 603d 82a7 21bd 0456 173d
000000c0: c045 73bd 62d6 6abc a31f 6ebc a20c 71bd
000000d0: 1bad 093d 3e60 083d 62c0 94bc 26eb 44bd
000000e0: cd37 3c3e e735 663d acf9 06be c91b 843e
000000f0: 4bf0 973c 00c3 4c3e 72a0 8dbe 1b81 d8bb
00000100: b8b3 523d 0a82 ea3d c71c 5ebc 9513 993d
00000110: 492d 16be e040 653d 7721 3fbd f041 7e3d
00000120: 16ce f33c e791 b03d e75e 21be 30eb 7abe
00000130: 1bda fdbc a162 cd3d 0955 763c 3e91 64bd
00000140: 139b aabb 544e 8abc 61ef 43bd 8267 ac3d
00000150: 5b9d 843c c0ef 0b3e ea0b 433c e481 15be
00000160: 0dc3 993b e6fc 583d 40f8 9bbe 541b 513e
00000170: 31ff 93bd 22b0 74bd 2d72 133d c9ba 123d
00000180: 2c57 8abe 4c25 e0bd 186d 303c cbb8 8b3d
00000190: d1ef 703c e3a4 263d 3a8c 443d 4bc5 eabd
000001a0: 3a76 073c 6cbb 40bd 9290 4d3d 1e33 893d
000001b0: dd02 af3d 0f4a 17be cf8b df3c 3848 893d
000001c0: 9b8a 18be 0467 103e e140 843d 8697 d03c
000001d0: 2284 b7bc 20cd b73d 9da8 92bd 851d fbbd
000001e0: 9acd 2f3e 940b f7bd b098 0d3c d087 103e
000001f0: ec97 3e3e c3a2 f7bc 8b52 943c 2ec1 68be
-0.055068705 0.17774041 0.07790102 0.058101334 -0.17073414 0.06546723 -0.057142925 0.15696587
0.22418801 0.0484356 0.00075585314 -0.36191106 -0.008228161 0.0011721781 -0.025828427 0.04517219
-0.16136508 0.053736087 -0.00016427008 -0.0042284066 -0.0026289762 -0.12894243 -0.058080316 0.2767182
0.022671226 -0.028559485 -0.03529844 -0.08031645 -0.15348957 -0.054922894 -0.03274741 0.13475928
-0.010805575 0.09998113 0.08604939 0.016122675 -0.13009939 0.033386737 -0.00040991177 -0.40331367
-0.117512144 0.05801934 0.05152013 -0.048449807 0.02993484 0.054734223 -0.03946639 0.036947265
-0.05939269 -0.014333339 -0.01453391 -0.05884994 0.033612352 0.03329491 -0.018158142 -0.048075818
0.18380661 0.05620375 -0.1318118 0.25802448 0.018547198 0.19996262 -0.27661473 -0.0066071874
0.051440924 0.11450584 -0.013556666 0.07474438 -0.14665712 0.055970073 -0.046662774 0.0620746
0.029761355 0.08621579 -0.15758859 -0.2450378 -0.03098779 0.100285776 0.015034922 -0.055802576
-0.0052064746 -0.016883053 -0.04783571 0.0841818 0.016188314 0.13665676 0.011904696 -0.1460033
0.0046924413 0.052975558 -0.30462837 0.20420581 -0.07226408 -0.059738286 0.03599756 0.035822663
-0.27019632 -0.10944614 0.0107681975 0.06822356 0.014705614 0.040684592 0.047985293 -0.11463412
0.0082679335 -0.04705374 0.0501867 0.06699203 0.08545468 -0.14774345 0.027288346 0.06703228
-0.14896624 0.14101797 0.06457687 0.025462877 -0.022401873 0.08974671 -0.07161067 -0.1226149
0.17168275 -0.12062755 0.008642361 0.14114308 0.18612641 -0.030228978 0.018105766 -0.22729942
